2022-11-25 20:42:37.609368
AutoEncoder(
  (encoder): Sequential(
    (0): Linear(in_features=16000, out_features=2000, bias=True)
    (1): Tanh()
    (2): Linear(in_features=2000, out_features=1000, bias=True)
    (3): Tanh()
    (4): Linear(in_features=1000, out_features=500, bias=True)
    (5): Tanh()
    (6): Linear(in_features=500, out_features=250, bias=True)
    (7): Tanh()
    (8): Linear(in_features=250, out_features=100, bias=True)
    (9): Tanh()
    (10): Linear(in_features=100, out_features=50, bias=True)
    (11): Dropout(p=0.1, inplace=False)
  )
  (decoder): Sequential(
    (0): Linear(in_features=50, out_features=100, bias=True)
    (1): Tanh()
    (2): Linear(in_features=100, out_features=250, bias=True)
    (3): Tanh()
    (4): Linear(in_features=250, out_features=500, bias=True)
    (5): Tanh()
    (6): Linear(in_features=500, out_features=1000, bias=True)
    (7): Tanh()
    (8): Linear(in_features=1000, out_features=2000, bias=True)
    (9): Tanh()
    (10): Linear(in_features=2000, out_features=16000, bias=True)
  )
)
MSELoss()
0.0001
50
Adam (
Parameter Group 0
    amsgrad: False
    betas: (0.9, 0.999)
    capturable: False
    eps: 1e-08
    foreach: None
    lr: 0.0001
    maximize: False
    weight_decay: 0
)
[… 2022-11-25 20:52:56.001798
AutoEncoder(
  (encoder): Sequential(
    (0): Linear(in_features=16000, out_features=2000, bias=True)
    (1): Tanh()
    (2): Linear(in_features=2000, out_features=1000, bias=True)
    (3): Tanh()
    (4): Linear(in_features=1000, out_features=500, bias=True)
    (5): Tanh()
    (6): Linear(in_features=500, out_features=250, bias=True)
    (7): Tanh()
    (8): Linear(in_features=250, out_features=100, bias=True)
    (9): Tanh()
    (10): Linear(in_features=100, out_features=50, bias=True)
    (11): Dropout(p=0.1, inplace=False)
  )
  (decoder): Sequential(
    (0): Linear(in_features=50, out_features=100, bias=True)
    (1): Tanh()
    (2): Linear(in_features=100, out_features=250, bias=True)
    (3): Tanh()
    (4): Linear(in_features=250, out_features=500, bias=True)
    (5): Tanh()
    (6): Linear(in_features=500, out_features=1000, bias=True)
    (7): Tanh()
    (8): Linear(in_features=1000, out_features=2000, bias=True)
    (9): Tanh()
    (10): Linear(in_features=2000, out_features=16000, bias=True)
  )
)
MSELoss()
0.0001
50
Adam (
Parameter Group 0
    amsgrad: False
    betas: (0.9, 0.999)
    capturable: False
    eps: 1e-08
    foreach: None
    lr: 0.0001
    maximize: False
    weight_decay: 0
)
[… 2022-11-25 20:58:30.812915
AutoEncoder(
  (encoder): Sequential(
    (0): Linear(in_features=16000, out_features=2000, bias=True)
    (1): Tanh()
    (2): Linear(in_features=2000, out_features=1000, bias=True)
    (3): Tanh()
    (4): Linear(in_features=1000, out_features=500, bias=True)
    (5): Tanh()
    (6): Linear(in_features=500, out_features=250, bias=True)
    (7): Tanh()
    (8): Linear(in_features=250, out_features=100, bias=True)
    (9): Tanh()
    (10): Linear(in_features=100, out_features=50, bias=True)
    (11): Dropout(p=0.1, inplace=False)
  )
  (decoder): Sequential(
    (0): Linear(in_features=50, out_features=100, bias=True)
    (1): Tanh()
    (2): Linear(in_features=100, out_features=250, bias=True)
    (3): Tanh()
    (4): Linear(in_features=250, out_features=500, bias=True)
    (5): Tanh()
    (6): Linear(in_features=500, out_features=1000, bias=True)
    (7): Tanh()
    (8): Linear(in_features=1000, out_features=2000, bias=True)
    (9): Tanh()
    (10): Linear(in_features=2000, out_features=16000, bias=True)
  )
)
MSELoss()
0.0001
50
Adam (
Parameter Group 0
    amsgrad: False
    betas: (0.9, 0.999)
    capturable: False
    eps: 1e-08
    foreach: None
    lr: 0.0001
    maximize: False
    weight_decay: 0
)
[… 