2022-11-25 20:42:37.609368
AutoEncoder(
  (encoder): Sequential(
    (0): Linear(in_features=16000, out_features=2000, bias=True)
    (1): Tanh()
    (2): Linear(in_features=2000, out_features=1000, bias=True)
    (3): Tanh()
    (4): Linear(in_features=1000, out_features=500, bias=True)
    (5): Tanh()
    (6): Linear(in_features=500, out_features=250, bias=True)
    (7): Tanh()
    (8): Linear(in_features=250, out_features=100, bias=True)
    (9): Tanh()
    (10): Linear(in_features=100, out_features=50, bias=True)
    (11): Dropout(p=0.1, inplace=False)
  )
  (decoder): Sequential(
    (0): Linear(in_features=50, out_features=100, bias=True)
    (1): Tanh()
    (2): Linear(in_features=100, out_features=250, bias=True)
    (3): Tanh()
    (4): Linear(in_features=250, out_features=500, bias=True)
    (5): Tanh()
    (6): Linear(in_features=500, out_features=1000, bias=True)
    (7): Tanh()
    (8): Linear(in_features=1000, out_features=2000, bias=True)
    (9): Tanh()
    (10): Linear(in_features=2000, out_features=16000, bias=True)
  )
)
MSELoss()
0.0001
50
Adam (
Parameter Group 0
    amsgrad: False
    betas: (0.9, 0.999)
    capturable: False
    eps: 1e-08
    foreach: None
    lr: 0.0001
    maximize: False
    weight_decay: 0
)
[… 2022-11-25 20:52:56.001798
AutoEncoder(
  (encoder): Sequential(
    (0): Linear(in_features=16000, out_features=2000, bias=True)
    (1): Tanh()
    (2): Linear(in_features=2000, out_features=1000, bias=True)
    (3): Tanh()
    (4): Linear(in_features=1000, out_features=500, bias=True)
    (5): Tanh()
    (6): Linear(in_features=500, out_features=250, bias=True)
    (7): Tanh()
    (8): Linear(in_features=250, out_features=100, bias=True)
    (9): Tanh()
    (10): Linear(in_features=100, out_features=50, bias=True)
    (11): Dropout(p=0.1, inplace=False)
  )
  (decoder): Sequential(
    (0): Linear(in_features=50, out_features=100, bias=True)
    (1): Tanh()
    (2): Linear(in_features=100, out_features=250, bias=True)
    (3): Tanh()
    (4): Linear(in_features=250, out_features=500, bias=True)
    (5): Tanh()
    (6): Linear(in_features=500, out_features=1000, bias=True)
    (7): Tanh()
    (8): Linear(in_features=1000, out_features=2000, bias=True)
    (9): Tanh()
    (10): Linear(in_features=2000, out_features=16000, bias=True)
  )
)
MSELoss()
0.0001
50
Adam (
Parameter Group 0
    amsgrad: False
    betas: (0.9, 0.999)
    capturable: False
    eps: 1e-08
    foreach: None
    lr: 0.0001
    maximize: False
    weight_decay: 0
)
[… 2022-11-25 20:58:30.812915
AutoEncoder(
  (encoder): Sequential(
    (0): Linear(in_features=16000, out_features=2000, bias=True)
    (1): Tanh()
    (2): Linear(in_features=2000, out_features=1000, bias=True)
    (3): Tanh()
    (4): Linear(in_features=1000, out_features=500, bias=True)
    (5): Tanh()
    (6): Linear(in_features=500, out_features=250, bias=True)
    (7): Tanh()
    (8): Linear(in_features=250, out_features=100, bias=True)
    (9): Tanh()
    (10): Linear(in_features=100, out_features=50, bias=True)
    (11): Dropout(p=0.1, inplace=False)
  )
  (decoder): Sequential(
    (0): Linear(in_features=50, out_features=100, bias=True)
    (1): Tanh()
    (2): Linear(in_features=100, out_features=250, bias=True)
    (3): Tanh()
    (4): Linear(in_features=250, out_features=500, bias=True)
    (5): Tanh()
    (6): Linear(in_features=500, out_features=1000, bias=True)
    (7): Tanh()
    (8): Linear(in_features=1000, out_features=2000, bias=True)
    (9): Tanh()
    (10): Linear(in_features=2000, out_features=16000, bias=True)
  )
)
MSELoss()
0.0001
50
Adam (
Parameter Group 0
    amsgrad: False
    betas: (0.9, 0.999)
    capturable: False
    eps: 1e-08
    foreach: None
    lr: 0.0001
    maximize: False
    weight_decay: 0
)
[… 2022-12-07 17:28:51.479789
AutoEncoder(
  (encoder): Sequential(
    (0): Linear(in_features=16000, out_features=2000, bias=True)
    (1): Tanh()
    (2): Linear(in_features=2000, out_features=1000, bias=True)
    (3): Tanh()
    (4): Linear(in_features=1000, out_features=500, bias=True)
    (5): Tanh()
    (6): Linear(in_features=500, out_features=250, bias=True)
    (7): Tanh()
    (8): Linear(in_features=250, out_features=100, bias=True)
    (9): Tanh()
    (10): Linear(in_features=100, out_features=50, bias=True)
    (11): Dropout(p=0.1, inplace=False)
  )
  (decoder): Sequential(
    (0): Linear(in_features=50, out_features=100, bias=True)
    (1): Tanh()
    (2): Linear(in_features=100, out_features=250, bias=True)
    (3): Tanh()
    (4): Linear(in_features=250, out_features=500, bias=True)
    (5): Tanh()
    (6): Linear(in_features=500, out_features=1000, bias=True)
    (7): Tanh()
    (8): Linear(in_features=1000, out_features=2000, bias=True)
    (9): Tanh()
    (10): Linear(in_features=2000, out_features=16000, bias=True)
  )
)
MSELoss()
0.0001
70
Adam (
Parameter Group 0
    amsgrad: False
    betas: (0.9, 0.999)
    capturable: False
    eps: 1e-08
    foreach: None
    lr: 0.0001
    maximize: False
    weight_decay: 0
)
[… 2022-12-10 14:23:51.762301
AutoEncoder(
  (encoder): Sequential(
    (0): Linear(in_features=16000, out_features=2000, bias=True)
    (1): Tanh()
    (2): Linear(in_features=2000, out_features=1000, bias=True)
    (3): Tanh()
    (4): Linear(in_features=1000, out_features=500, bias=True)
    (5): Tanh()
    (6): Linear(in_features=500, out_features=250, bias=True)
    (7): Tanh()
    (8): Linear(in_features=250, out_features=100, bias=True)
    (9): Tanh()
    (10): Linear(in_features=100, out_features=50, bias=True)
    (11): Dropout(p=0.1, inplace=False)
  )
  (decoder): Sequential(
    (0): Linear(in_features=50, out_features=100, bias=True)
    (1): Tanh()
    (2): Linear(in_features=100, out_features=250, bias=True)
    (3): Tanh()
    (4): Linear(in_features=250, out_features=500, bias=True)
    (5): Tanh()
    (6): Linear(in_features=500, out_features=1000, bias=True)
    (7): Tanh()
    (8): Linear(in_features=1000, out_features=2000, bias=True)
    (9): Tanh()
    (10): Linear(in_features=2000, out_features=16000, bias=True)
  )
)
MSELoss()
0.0001
50
Adam (
Parameter Group 0
    amsgrad: False
    betas: (0.9, 0.999)
    capturable: False
    eps: 1e-08
    foreach: None
    lr: 0.0001
    maximize: False
    weight_decay: 0
)
[… 2022-12-10 14:27:08.634235
AutoEncoder(
  (encoder): Sequential(
    (0): Linear(in_features=16000, out_features=2000, bias=True)
    (1): Tanh()
    (2): Linear(in_features=2000, out_features=1000, bias=True)
    (3): Tanh()
    (4): Linear(in_features=1000, out_features=500, bias=True)
    (5): Tanh()
    (6): Linear(in_features=500, out_features=250, bias=True)
    (7): Tanh()
    (8): Linear(in_features=250, out_features=100, bias=True)
    (9): Tanh()
    (10): Linear(in_features=100, out_features=50, bias=True)
    (11): Dropout(p=0.1, inplace=False)
  )
  (decoder): Sequential(
    (0): Linear(in_features=50, out_features=100, bias=True)
    (1): Tanh()
    (2): Linear(in_features=100, out_features=250, bias=True)
    (3): Tanh()
    (4): Linear(in_features=250, out_features=500, bias=True)
    (5): Tanh()
    (6): Linear(in_features=500, out_features=1000, bias=True)
    (7): Tanh()
    (8): Linear(in_features=1000, out_features=2000, bias=True)
    (9): Tanh()
    (10): Linear(in_features=2000, out_features=16000, bias=True)
  )
)
MSELoss()
1e-06
50
Adam (
Parameter Group 0
    amsgrad: False
    betas: (0.9, 0.999)
    capturable: False
    eps: 1e-08
    foreach: None
    lr: 1e-06
    maximize: False
    weight_decay: 0
)
[… 2022-12-10 16:28:01.725160
AutoEncoder(
  (encoder): Sequential(
    (0): Linear(in_features=16000, out_features=2000, bias=True)
    (1): Tanh()
    (2): Linear(in_features=2000, out_features=1000, bias=True)
    (3): Tanh()
    (4): Linear(in_features=1000, out_features=500, bias=True)
    (5): Tanh()
    (6): Linear(in_features=500, out_features=250, bias=True)
    (7): Tanh()
    (8): Linear(in_features=250, out_features=100, bias=True)
    (9): Tanh()
    (10): Linear(in_features=100, out_features=50, bias=True)
    (11): Dropout(p=0.1, inplace=False)
  )
  (decoder): Sequential(
    (0): Linear(in_features=50, out_features=100, bias=True)
    (1): Tanh()
    (2): Linear(in_features=100, out_features=250, bias=True)
    (3): Tanh()
    (4): Linear(in_features=250, out_features=500, bias=True)
    (5): Tanh()
    (6): Linear(in_features=500, out_features=1000, bias=True)
    (7): Tanh()
    (8): Linear(in_features=1000, out_features=2000, bias=True)
    (9): Tanh()
    (10): Linear(in_features=2000, out_features=16000, bias=True)
  )
)
MSELoss()
0.0001
100
Adam (
Parameter Group 0
    amsgrad: False
    betas: (0.9, 0.999)
    capturable: False
    eps: 1e-08
    foreach: None
    lr: 0.0001
    maximize: False
    weight_decay: 0
)
[… 2022-12-10 17:00:26.131462
AutoEncoder(
  (encoder): Sequential(
    (0): Linear(in_features=16000, out_features=2000, bias=True)
    (1): Tanh()
    (2): Linear(in_features=2000, out_features=1000, bias=True)
    (3): Tanh()
    (4): Linear(in_features=1000, out_features=500, bias=True)
    (5): Tanh()
    (6): Linear(in_features=500, out_features=250, bias=True)
    (7): Tanh()
    (8): Linear(in_features=250, out_features=100, bias=True)
    (9): Tanh()
    (10): Linear(in_features=100, out_features=50, bias=True)
    (11): Dropout(p=0.1, inplace=False)
  )
  (decoder): Sequential(
    (0): Linear(in_features=50, out_features=100, bias=True)
    (1): Tanh()
    (2): Linear(in_features=100, out_features=250, bias=True)
    (3): Tanh()
    (4): Linear(in_features=250, out_features=500, bias=True)
    (5): Tanh()
    (6): Linear(in_features=500, out_features=1000, bias=True)
    (7): Tanh()
    (8): Linear(in_features=1000, out_features=2000, bias=True)
    (9): Tanh()
    (10): Linear(in_features=2000, out_features=16000, bias=True)
  )
)
MSELoss()
0.0001
100
Adam (
Parameter Group 0
    amsgrad: False
    betas: (0.9, 0.999)
    capturable: False
    eps: 1e-08
    foreach: None
    lr: 0.0001
    maximize: False
    weight_decay: 0
)
[… 2022-12-10 17:39:37.808366
AutoEncoder(
  (encoder): Sequential(
    (0): Linear(in_features=16000, out_features=2000, bias=True)
    (1): Tanh()
    (2): Linear(in_features=2000, out_features=1000, bias=True)
    (3): Tanh()
    (4): Linear(in_features=1000, out_features=500, bias=True)
    (5): Tanh()
    (6): Linear(in_features=500, out_features=250, bias=True)
    (7): Tanh()
    (8): Linear(in_features=250, out_features=100, bias=True)
    (9): Tanh()
    (10): Linear(in_features=100, out_features=50, bias=True)
    (11): Dropout(p=0.1, inplace=False)
  )
  (decoder): Sequential(
    (0): Linear(in_features=50, out_features=100, bias=True)
    (1): Tanh()
    (2): Linear(in_features=100, out_features=250, bias=True)
    (3): Tanh()
    (4): Linear(in_features=250, out_features=500, bias=True)
    (5): Tanh()
    (6): Linear(in_features=500, out_features=1000, bias=True)
    (7): Tanh()
    (8): Linear(in_features=1000, out_features=2000, bias=True)
    (9): Tanh()
    (10): Linear(in_features=2000, out_features=16000, bias=True)
  )
)
MSELoss()
0.0001
100
Adam (
Parameter Group 0
    amsgrad: False
    betas: (0.9, 0.999)
    capturable: False
    eps: 1e-08
    foreach: None
    lr: 0.0001
    maximize: False
    weight_decay: 0
)
[… 2022-12-10 19:21:45.418093
AutoEncoder(
  (encoder): Sequential(
    (0): Linear(in_features=16000, out_features=2000, bias=True)
    (1): Tanh()
    (2): Linear(in_features=2000, out_features=1000, bias=True)
    (3): Tanh()
    (4): Linear(in_features=1000, out_features=500, bias=True)
    (5): Tanh()
    (6): Linear(in_features=500, out_features=250, bias=True)
    (7): Tanh()
    (8): Linear(in_features=250, out_features=100, bias=True)
    (9): Tanh()
    (10): Linear(in_features=100, out_features=50, bias=True)
    (11): Dropout(p=0.1, inplace=False)
  )
  (decoder): Sequential(
    (0): Linear(in_features=50, out_features=100, bias=True)
    (1): Tanh()
    (2): Linear(in_features=100, out_features=250, bias=True)
    (3): Tanh()
    (4): Linear(in_features=250, out_features=500, bias=True)
    (5): Tanh()
    (6): Linear(in_features=500, out_features=1000, bias=True)
    (7): Tanh()
    (8): Linear(in_features=1000, out_features=2000, bias=True)
    (9): Tanh()
    (10): Linear(in_features=2000, out_features=16000, bias=True)
  )
)
MSELoss()
0.0001
100
Adam (
Parameter Group 0
    amsgrad: False
    betas: (0.9, 0.999)
    capturable: False
    eps: 1e-08
    foreach: None
    lr: 0.0001
    maximize: False
    weight_decay: 0
)
[… 2023-02-18 11:07:34.614962
CAE(
  (encoder): Sequential(
    (0): Conv2d(1, 32, kernel_size=(3, 1), stride=(1, 1), padding=same)
    (1): Tanh()
    (2): MaxPool2d(kernel_size=(2, 1), stride=2, padding=0, dilation=1, ceil_mode=False)
    (3): Conv2d(32, 64, kernel_size=(3, 1), stride=(1, 1), padding=same)
    (4): Tanh()
    (5): MaxPool2d(kernel_size=(2, 1), stride=2, padding=0, dilation=1, ceil_mode=False)
    (6): Conv2d(64, 128, kernel_size=(3, 1), stride=(1, 1), padding=same)
    (7): Tanh()
    (8): MaxPool2d(kernel_size=(2, 1), stride=2, padding=0, dilation=1, ceil_mode=False)
  )
  (decoder): Sequential(
    (0): ConvTranspose2d(128, 64, kernel_size=(3, 1), stride=(2, 2))
    (1): Tanh()
    (2): ConvTranspose2d(64, 32, kernel_size=(3, 1), stride=(2, 2))
    (3): Tanh()
    (4): ConvTranspose2d(32, 1, kernel_size=(3, 1), stride=(2, 2))
    (5): Tanh()
    (6): Trim()
  )
)
MSELoss()
0.0001
100
Adam (
Parameter Group 0
    amsgrad: False
    betas: (0.9, 0.999)
    capturable: False
    eps: 1e-08
    foreach: None
    lr: 0.0001
    maximize: False
    weight_decay: 0
)
[… 2023-02-18 11:21:52.409299
CAE(
  (encoder): Sequential(
    (0): Conv2d(1, 32, kernel_size=(3, 1), stride=(1, 1), padding=same)
    (1): Tanh()
    (2): MaxPool2d(kernel_size=(2, 1), stride=2, padding=0, dilation=1, ceil_mode=False)
    (3): Conv2d(32, 64, kernel_size=(3, 1), stride=(1, 1), padding=same)
    (4): Tanh()
    (5): MaxPool2d(kernel_size=(2, 1), stride=2, padding=0, dilation=1, ceil_mode=False)
    (6): Conv2d(64, 128, kernel_size=(3, 1), stride=(1, 1), padding=same)
    (7): Tanh()
    (8): MaxPool2d(kernel_size=(2, 1), stride=2, padding=0, dilation=1, ceil_mode=False)
  )
  (decoder): Sequential(
    (0): ConvTranspose2d(128, 64, kernel_size=(3, 1), stride=(2, 2))
    (1): Tanh()
    (2): ConvTranspose2d(64, 32, kernel_size=(3, 1), stride=(2, 2))
    (3): Tanh()
    (4): ConvTranspose2d(32, 1, kernel_size=(3, 1), stride=(2, 2))
    (5): Tanh()
    (6): Trim()
  )
)
MSELoss()
0.0001
100
Adam (
Parameter Group 0
    amsgrad: False
    betas: (0.9, 0.999)
    capturable: False
    eps: 1e-08
    foreach: None
    lr: 0.0001
    maximize: False
    weight_decay: 0
)
[… 2023-02-18 11:46:34.094605
CAE(
  (encoder): Sequential(
    (0): Conv2d(1, 32, kernel_size=(3, 1), stride=(1, 1), padding=same)
    (1): Tanh()
    (2): MaxPool2d(kernel_size=(2, 1), stride=2, padding=0, dilation=1, ceil_mode=False)
    (3): Conv2d(32, 64, kernel_size=(3, 1), stride=(1, 1), padding=same)
    (4): Tanh()
    (5): MaxPool2d(kernel_size=(2, 1), stride=2, padding=0, dilation=1, ceil_mode=False)
    (6): Conv2d(64, 128, kernel_size=(3, 1), stride=(1, 1), padding=same)
    (7): Tanh()
    (8): MaxPool2d(kernel_size=(2, 1), stride=2, padding=0, dilation=1, ceil_mode=False)
    (9): Conv2d(128, 256, kernel_size=(3, 1), stride=(1, 1), padding=same)
    (10): Tanh()
    (11): MaxPool2d(kernel_size=(2, 1), stride=2, padding=0, dilation=1, ceil_mode=False)
    (12): Conv2d(256, 512, kernel_size=(3, 1), stride=(1, 1), padding=same)
    (13): Tanh()
    (14): MaxPool2d(kernel_size=(2, 1), stride=2, padding=0, dilation=1, ceil_mode=False)
  )
  (decoder): Sequential(
    (0): ConvTranspose2d(512, 256, kernel_size=(3, 1), stride=(2, 2))
    (1): Tanh()
    (2): ConvTranspose2d(256, 128, kernel_size=(3, 1), stride=(2, 2))
    (3): Tanh()
    (4): ConvTranspose2d(128, 64, kernel_size=(3, 1), stride=(2, 2))
    (5): Tanh()
    (6): ConvTranspose2d(64, 32, kernel_size=(3, 1), stride=(2, 2))
    (7): Tanh()
    (8): ConvTranspose2d(32, 1, kernel_size=(3, 1), stride=(2, 2))
    (9): Tanh()
    (10): Trim()
  )
)
MSELoss()
0.0001
150
Adam (
Parameter Group 0
    amsgrad: False
    betas: (0.9, 0.999)
    capturable: False
    eps: 1e-08
    foreach: None
    lr: 0.0001
    maximize: False
    weight_decay: 0
)
[… 2023-02-18 13:08:00.331772
CAE(
  (encoder): Sequential(
    (0): Conv2d(1, 32, kernel_size=(3, 1), stride=(1, 1), padding=same)
    (1): Tanh()
    (2): MaxPool2d(kernel_size=(2, 1), stride=2, padding=0, dilation=1, ceil_mode=False)
    (3): Conv2d(32, 64, kernel_size=(3, 1), stride=(1, 1), padding=same)
    (4): Tanh()
    (5): MaxPool2d(kernel_size=(2, 1), stride=2, padding=0, dilation=1, ceil_mode=False)
    (6): Conv2d(64, 128, kernel_size=(3, 1), stride=(1, 1), padding=same)
    (7): Tanh()
    (8): MaxPool2d(kernel_size=(2, 1), stride=2, padding=0, dilation=1, ceil_mode=False)
    (9): Conv2d(128, 256, kernel_size=(3, 1), stride=(1, 1), padding=same)
    (10): Tanh()
    (11): MaxPool2d(kernel_size=(2, 1), stride=2, padding=0, dilation=1, ceil_mode=False)
    (12): Conv2d(256, 512, kernel_size=(3, 1), stride=(1, 1), padding=same)
    (13): Tanh()
    (14): MaxPool2d(kernel_size=(2, 1), stride=2, padding=0, dilation=1, ceil_mode=False)
  )
  (decoder): Sequential(
    (0): ConvTranspose2d(512, 256, kernel_size=(3, 1), stride=(2, 2))
    (1): Tanh()
    (2): ConvTranspose2d(256, 128, kernel_size=(3, 1), stride=(2, 2))
    (3): Tanh()
    (4): ConvTranspose2d(128, 64, kernel_size=(3, 1), stride=(2, 2))
    (5): Tanh()
    (6): ConvTranspose2d(64, 32, kernel_size=(3, 1), stride=(2, 2))
    (7): Tanh()
    (8): ConvTranspose2d(32, 1, kernel_size=(3, 1), stride=(2, 2))
    (9): Tanh()
    (10): Trim()
  )
)
MSELoss()
0.0001
150
Adam (
Parameter Group 0
    amsgrad: False
    betas: (0.9, 0.999)
    capturable: False
    eps: 1e-08
    foreach: None
    lr: 0.0001
    maximize: False
    weight_decay: 0
)
[… 2023-02-18 13:43:36.901938
CAE(
  (encoder): Sequential(
    (0): Conv2d(1, 32, kernel_size=(3, 1), stride=(1, 1), padding=same)
    (1): Tanh()
    (2): MaxPool2d(kernel_size=(2, 1), stride=2, padding=0, dilation=1, ceil_mode=False)
    (3): Conv2d(32, 64, kernel_size=(3, 1), stride=(1, 1), padding=same)
    (4): Tanh()
    (5): MaxPool2d(kernel_size=(2, 1), stride=2, padding=0, dilation=1, ceil_mode=False)
    (6): Conv2d(64, 128, kernel_size=(3, 1), stride=(1, 1), padding=same)
    (7): Tanh()
    (8): MaxPool2d(kernel_size=(2, 1), stride=2, padding=0, dilation=1, ceil_mode=False)
    (9): Conv2d(128, 256, kernel_size=(3, 1), stride=(1, 1), padding=same)
    (10): Tanh()
    (11): MaxPool2d(kernel_size=(2, 1), stride=2, padding=0, dilation=1, ceil_mode=False)
    (12): Conv2d(256, 512, kernel_size=(3, 1), stride=(1, 1), padding=same)
    (13): Tanh()
    (14): MaxPool2d(kernel_size=(2, 1), stride=2, padding=0, dilation=1, ceil_mode=False)
  )
  (decoder): Sequential(
    (0): ConvTranspose2d(512, 256, kernel_size=(3, 1), stride=(2, 2))
    (1): Tanh()
    (2): ConvTranspose2d(256, 128, kernel_size=(3, 1), stride=(2, 2))
    (3): Tanh()
    (4): ConvTranspose2d(128, 64, kernel_size=(3, 1), stride=(2, 2))
    (5): Tanh()
    (6): ConvTranspose2d(64, 32, kernel_size=(3, 1), stride=(2, 2))
    (7): Tanh()
    (8): ConvTranspose2d(32, 1, kernel_size=(3, 1), stride=(2, 2))
    (9): Trim()
  )
)
MSELoss()
0.0001
100
Adam (
Parameter Group 0
    amsgrad: False
    betas: (0.9, 0.999)
    capturable: False
    eps: 1e-08
    foreach: None
    lr: 0.0001
    maximize: False
    weight_decay: 0
)
[… 2023-02-18 14:05:33.020150
CAE(
  (encoder): Sequential(
    (0): Conv2d(1, 32, kernel_size=(3, 1), stride=(1, 1), padding=same)
    (1): Tanh()
    (2): MaxPool2d(kernel_size=(2, 1), stride=2, padding=0, dilation=1, ceil_mode=False)
    (3): Conv2d(32, 64, kernel_size=(3, 1), stride=(1, 1), padding=same)
    (4): Tanh()
    (5): MaxPool2d(kernel_size=(2, 1), stride=2, padding=0, dilation=1, ceil_mode=False)
    (6): Conv2d(64, 128, kernel_size=(3, 1), stride=(1, 1), padding=same)
    (7): Tanh()
    (8): MaxPool2d(kernel_size=(2, 1), stride=2, padding=0, dilation=1, ceil_mode=False)
    (9): Conv2d(128, 256, kernel_size=(3, 1), stride=(1, 1), padding=same)
    (10): Tanh()
    (11): MaxPool2d(kernel_size=(2, 1), stride=2, padding=0, dilation=1, ceil_mode=False)
    (12): Conv2d(256, 512, kernel_size=(3, 1), stride=(1, 1), padding=same)
    (13): Tanh()
    (14): MaxPool2d(kernel_size=(2, 1), stride=2, padding=0, dilation=1, ceil_mode=False)
  )
  (decoder): Sequential(
    (0): ConvTranspose2d(512, 256, kernel_size=(3, 1), stride=(2, 2))
    (1): Tanh()
    (2): ConvTranspose2d(256, 128, kernel_size=(3, 1), stride=(2, 2))
    (3): Tanh()
    (4): ConvTranspose2d(128, 64, kernel_size=(3, 1), stride=(2, 2))
    (5): Tanh()
    (6): ConvTranspose2d(64, 32, kernel_size=(3, 1), stride=(2, 2))
    (7): Tanh()
    (8): ConvTranspose2d(32, 1, kernel_size=(3, 1), stride=(2, 2))
    (9): Tanh()
    (10): Trim()
  )
)
MSELoss()
0.0001
100
Adam (
Parameter Group 0
    amsgrad: False
    betas: (0.9, 0.999)
    capturable: False
    eps: 1e-08
    foreach: None
    lr: 0.0001
    maximize: False
    weight_decay: 0
)
[… 2023-02-19 12:30:27.946742
CAE(
  (encoder): Sequential(
    (0): Conv2d(1, 32, kernel_size=(10, 1), stride=(1, 1), padding=same)
    (1): Tanh()
    (2): MaxPool2d(kernel_size=(2, 1), stride=2, padding=0, dilation=1, ceil_mode=False)
    (3): Conv2d(32, 64, kernel_size=(10, 1), stride=(1, 1), padding=same)
    (4): Tanh()
    (5): MaxPool2d(kernel_size=(2, 1), stride=2, padding=0, dilation=1, ceil_mode=False)
    (6): Conv2d(64, 128, kernel_size=(10, 1), stride=(1, 1), padding=same)
    (7): Tanh()
    (8): MaxPool2d(kernel_size=(2, 1), stride=2, padding=0, dilation=1, ceil_mode=False)
    (9): Conv2d(128, 256, kernel_size=(10, 1), stride=(1, 1), padding=same)
    (10): Tanh()
    (11): MaxPool2d(kernel_size=(2, 1), stride=2, padding=0, dilation=1, ceil_mode=False)
    (12): Conv2d(256, 512, kernel_size=(10, 1), stride=(1, 1), padding=same)
    (13): Tanh()
    (14): MaxPool2d(kernel_size=(2, 1), stride=2, padding=0, dilation=1, ceil_mode=False)
  )
  (decoder): Sequential(
    (0): ConvTranspose2d(512, 256, kernel_size=(10, 1), stride=(2, 2))
    (1): Tanh()
    (2): ConvTranspose2d(256, 128, kernel_size=(10, 1), stride=(2, 2))
    (3): Tanh()
    (4): ConvTranspose2d(128, 64, kernel_size=(10, 1), stride=(2, 2))
    (5): Tanh()
    (6): ConvTranspose2d(64, 32, kernel_size=(10, 1), stride=(2, 2))
    (7): Tanh()
    (8): ConvTranspose2d(32, 1, kernel_size=(10, 1), stride=(2, 2))
    (9): Tanh()
    (10): Trim()
  )
)
MSELoss()
0.0001
100
Adam (
Parameter Group 0
    amsgrad: False
    betas: (0.9, 0.999)
    capturable: False
    eps: 1e-08
    foreach: None
    lr: 0.0001
    maximize: False
    weight_decay: 0
)
[… 2023-02-19 12:48:29.783034
CAE(
  (encoder): Sequential(
    (0): Conv2d(1, 32, kernel_size=(5, 1), stride=(1, 1), padding=same)
    (1): Tanh()
    (2): MaxPool2d(kernel_size=(2, 1), stride=2, padding=0, dilation=1, ceil_mode=False)
    (3): Conv2d(32, 64, kernel_size=(5, 1), stride=(1, 1), padding=same)
    (4): Tanh()
    (5): MaxPool2d(kernel_size=(2, 1), stride=2, padding=0, dilation=1, ceil_mode=False)
    (6): Conv2d(64, 128, kernel_size=(5, 1), stride=(1, 1), padding=same)
    (7): Tanh()
    (8): MaxPool2d(kernel_size=(2, 1), stride=2, padding=0, dilation=1, ceil_mode=False)
  )
  (decoder): Sequential(
    (0): ConvTranspose2d(128, 64, kernel_size=(5, 1), stride=(2, 2))
    (1): Tanh()
    (2): ConvTranspose2d(64, 32, kernel_size=(5, 1), stride=(2, 2))
    (3): Tanh()
    (4): ConvTranspose2d(32, 1, kernel_size=(5, 1), stride=(2, 2))
    (5): Tanh()
    (6): Trim()
  )
)
MSELoss()
0.0001
150
Adam (
Parameter Group 0
    amsgrad: False
    betas: (0.9, 0.999)
    capturable: False
    eps: 1e-08
    foreach: None
    lr: 0.0001
    maximize: False
    weight_decay: 0
)
[… 2023-02-19 12:56:30.155352
CAE(
  (encoder): Sequential(
    (0): Conv2d(1, 32, kernel_size=(3, 1), stride=(1, 1), padding=same)
    (1): Tanh()
    (2): MaxPool2d(kernel_size=(2, 1), stride=2, padding=0, dilation=1, ceil_mode=False)
    (3): Conv2d(32, 64, kernel_size=(3, 1), stride=(1, 1), padding=same)
    (4): Tanh()
    (5): MaxPool2d(kernel_size=(2, 1), stride=2, padding=0, dilation=1, ceil_mode=False)
    (6): Conv2d(64, 128, kernel_size=(3, 1), stride=(1, 1), padding=same)
    (7): Tanh()
    (8): MaxPool2d(kernel_size=(2, 1), stride=2, padding=0, dilation=1, ceil_mode=False)
  )
  (decoder): Sequential(
    (0): ConvTranspose2d(128, 64, kernel_size=(3, 1), stride=(2, 2))
    (1): Tanh()
    (2): ConvTranspose2d(64, 32, kernel_size=(3, 1), stride=(2, 2))
    (3): Tanh()
    (4): ConvTranspose2d(32, 1, kernel_size=(3, 1), stride=(2, 2))
    (5): Tanh()
    (6): Trim()
  )
)
MSELoss()
0.0001
150
Adam (
Parameter Group 0
    amsgrad: False
    betas: (0.9, 0.999)
    capturable: False
    eps: 1e-08
    foreach: None
    lr: 0.0001
    maximize: False
    weight_decay: 0
)
[… 2023-02-19 13:15:30.155450
CAE(
  (encoder): Sequential(
    (0): Conv2d(1, 32, kernel_size=(3, 1), stride=(1, 1), padding=same)
    (1): Tanh()
    (2): MaxPool2d(kernel_size=(2, 1), stride=2, padding=0, dilation=1, ceil_mode=False)
    (3): Conv2d(32, 64, kernel_size=(3, 1), stride=(1, 1), padding=same)
    (4): Tanh()
    (5): MaxPool2d(kernel_size=(2, 1), stride=2, padding=0, dilation=1, ceil_mode=False)
    (6): Conv2d(64, 128, kernel_size=(3, 1), stride=(1, 1), padding=same)
    (7): Tanh()
    (8): MaxPool2d(kernel_size=(2, 1), stride=2, padding=0, dilation=1, ceil_mode=False)
  )
  (decoder): Sequential(
    (0): ConvTranspose2d(128, 64, kernel_size=(3, 1), stride=(2, 2))
    (1): Tanh()
    (2): ConvTranspose2d(64, 32, kernel_size=(3, 1), stride=(2, 2))
    (3): Tanh()
    (4): ConvTranspose2d(32, 1, kernel_size=(3, 1), stride=(2, 2))
    (5): Tanh()
    (6): Trim()
  )
)
MSELoss()
0.0001
150
Adam (
Parameter Group 0
    amsgrad: False
    betas: (0.9, 0.999)
    capturable: False
    eps: 1e-08
    foreach: None
    lr: 0.0001
    maximize: False
    weight_decay: 0
)
[… 2023-02-19 13:28:57.440625
CAE(
  (encoder): Sequential(
    (0): Conv2d(1, 32, kernel_size=(9, 1), stride=(1, 1), padding=same)
    (1): Tanh()
    (2): MaxPool2d(kernel_size=(2, 1), stride=2, padding=0, dilation=1, ceil_mode=False)
    (3): Conv2d(32, 64, kernel_size=(9, 1), stride=(1, 1), padding=same)
    (4): Tanh()
    (5): MaxPool2d(kernel_size=(2, 1), stride=2, padding=0, dilation=1, ceil_mode=False)
    (6): Conv2d(64, 128, kernel_size=(9, 1), stride=(1, 1), padding=same)
    (7): Tanh()
    (8): MaxPool2d(kernel_size=(2, 1), stride=2, padding=0, dilation=1, ceil_mode=False)
  )
  (decoder): Sequential(
    (0): ConvTranspose2d(128, 64, kernel_size=(9, 1), stride=(2, 2))
    (1): Tanh()
    (2): ConvTranspose2d(64, 32, kernel_size=(9, 1), stride=(2, 2))
    (3): Tanh()
    (4): ConvTranspose2d(32, 1, kernel_size=(9, 1), stride=(2, 2))
    (5): Tanh()
    (6): Trim()
  )
)
MSELoss()
0.0001
150
Adam (
Parameter Group 0
    amsgrad: False
    betas: (0.9, 0.999)
    capturable: False
    eps: 1e-08
    foreach: None
    lr: 0.0001
    maximize: False
    weight_decay: 0
)
[… 2023-02-19 13:43:44.097351
CAE(
  (encoder): Sequential(
    (0): Conv2d(1, 32, kernel_size=(25, 1), stride=(1, 1), padding=same)
    (1): Tanh()
    (2): MaxPool2d(kernel_size=(2, 1), stride=2, padding=0, dilation=1, ceil_mode=False)
    (3): Conv2d(32, 64, kernel_size=(25, 1), stride=(1, 1), padding=same)
    (4): Tanh()
    (5): MaxPool2d(kernel_size=(2, 1), stride=2, padding=0, dilation=1, ceil_mode=False)
    (6): Conv2d(64, 128, kernel_size=(25, 1), stride=(1, 1), padding=same)
    (7): Tanh()
    (8): MaxPool2d(kernel_size=(2, 1), stride=2, padding=0, dilation=1, ceil_mode=False)
  )
  (decoder): Sequential(
    (0): ConvTranspose2d(128, 64, kernel_size=(25, 1), stride=(2, 2))
    (1): Tanh()
    (2): ConvTranspose2d(64, 32, kernel_size=(25, 1), stride=(2, 2))
    (3): Tanh()
    (4): ConvTranspose2d(32, 1, kernel_size=(25, 1), stride=(2, 2))
    (5): Tanh()
    (6): Trim()
  )
)
MSELoss()
0.0001
150
Adam (
Parameter Group 0
    amsgrad: False
    betas: (0.9, 0.999)
    capturable: False
    eps: 1e-08
    foreach: None
    lr: 0.0001
    maximize: False
    weight_decay: 0
)
[… 2023-02-19 13:56:25.980085
CAE(
  (encoder): Sequential(
    (0): Conv2d(1, 32, kernel_size=(5, 1), stride=(1, 1), padding=same)
    (1): Tanh()
    (2): MaxPool2d(kernel_size=(3, 1), stride=2, padding=0, dilation=1, ceil_mode=False)
    (3): Conv2d(32, 64, kernel_size=(5, 1), stride=(1, 1), padding=same)
    (4): Tanh()
    (5): MaxPool2d(kernel_size=(3, 1), stride=2, padding=0, dilation=1, ceil_mode=False)
    (6): Conv2d(64, 128, kernel_size=(5, 1), stride=(1, 1), padding=same)
    (7): Tanh()
    (8): MaxPool2d(kernel_size=(3, 1), stride=2, padding=0, dilation=1, ceil_mode=False)
  )
  (decoder): Sequential(
    (0): ConvTranspose2d(128, 64, kernel_size=(5, 1), stride=(2, 2))
    (1): Tanh()
    (2): ConvTranspose2d(64, 32, kernel_size=(5, 1), stride=(2, 2))
    (3): Tanh()
    (4): ConvTranspose2d(32, 1, kernel_size=(5, 1), stride=(2, 2))
    (5): Tanh()
    (6): Trim()
  )
)
MSELoss()
0.0001
150
Adam (
Parameter Group 0
    amsgrad: False
    betas: (0.9, 0.999)
    capturable: False
    eps: 1e-08
    foreach: None
    lr: 0.0001
    maximize: False
    weight_decay: 0
)
[… 2023-02-19 14:12:04.084900
CAE(
  (encoder): Sequential(
    (0): Conv2d(1, 32, kernel_size=(3, 1), stride=(1, 1), padding=same)
    (1): Tanh()
    (2): MaxPool2d(kernel_size=(2, 1), stride=2, padding=0, dilation=1, ceil_mode=False)
    (3): Conv2d(32, 64, kernel_size=(3, 1), stride=(1, 1), padding=same)
    (4): Tanh()
    (5): MaxPool2d(kernel_size=(2, 1), stride=2, padding=0, dilation=1, ceil_mode=False)
    (6): Conv2d(64, 128, kernel_size=(3, 1), stride=(1, 1), padding=same)
    (7): Tanh()
    (8): MaxPool2d(kernel_size=(2, 1), stride=2, padding=0, dilation=1, ceil_mode=False)
    (9): Conv2d(128, 256, kernel_size=(3, 1), stride=(1, 1), padding=same)
    (10): Tanh()
    (11): MaxPool2d(kernel_size=(2, 1), stride=2, padding=0, dilation=1, ceil_mode=False)
    (12): Conv2d(256, 512, kernel_size=(3, 1), stride=(1, 1), padding=same)
    (13): Tanh()
    (14): MaxPool2d(kernel_size=(2, 1), stride=2, padding=0, dilation=1, ceil_mode=False)
  )
  (decoder): Sequential(
    (0): ConvTranspose2d(512, 256, kernel_size=(3, 1), stride=(2, 2))
    (1): Tanh()
    (2): ConvTranspose2d(256, 128, kernel_size=(3, 1), stride=(2, 2))
    (3): Tanh()
    (4): ConvTranspose2d(128, 64, kernel_size=(3, 1), stride=(2, 2))
    (5): Tanh()
    (6): ConvTranspose2d(64, 32, kernel_size=(3, 1), stride=(2, 2))
    (7): Tanh()
    (8): ConvTranspose2d(32, 1, kernel_size=(3, 1), stride=(2, 2))
    (9): Tanh()
    (10): Trim()
  )
)
MSELoss()
0.0001
150
Adam (
Parameter Group 0
    amsgrad: False
    betas: (0.9, 0.999)
    capturable: False
    eps: 1e-08
    foreach: None
    lr: 0.0001
    maximize: False
    weight_decay: 0
)
[… 2023-02-20 15:40:01.905652
CAE(
  (encoder): Sequential(
    (0): Conv2d(1, 32, kernel_size=(3, 1), stride=(1, 1), padding=same)
    (1): Tanh()
    (2): MaxPool2d(kernel_size=(2, 1), stride=2, padding=0, dilation=1, ceil_mode=False)
    (3): Conv2d(32, 64, kernel_size=(3, 1), stride=(1, 1), padding=same)
    (4): Tanh()
    (5): MaxPool2d(kernel_size=(2, 1), stride=2, padding=0, dilation=1, ceil_mode=False)
    (6): Conv2d(64, 128, kernel_size=(3, 1), stride=(1, 1), padding=same)
    (7): Tanh()
    (8): MaxPool2d(kernel_size=(2, 1), stride=2, padding=0, dilation=1, ceil_mode=False)
    (9): Conv2d(128, 256, kernel_size=(3, 1), stride=(1, 1), padding=same)
    (10): Tanh()
    (11): MaxPool2d(kernel_size=(2, 1), stride=2, padding=0, dilation=1, ceil_mode=False)
    (12): Conv2d(256, 512, kernel_size=(3, 1), stride=(1, 1), padding=same)
    (13): Tanh()
    (14): MaxPool2d(kernel_size=(2, 1), stride=2, padding=0, dilation=1, ceil_mode=False)
  )
  (decoder): Sequential(
    (0): ConvTranspose2d(512, 256, kernel_size=(3, 1), stride=(2, 2))
    (1): Tanh()
    (2): ConvTranspose2d(256, 128, kernel_size=(3, 1), stride=(2, 2))
    (3): Tanh()
    (4): ConvTranspose2d(128, 64, kernel_size=(3, 1), stride=(2, 2))
    (5): Tanh()
    (6): ConvTranspose2d(64, 32, kernel_size=(3, 1), stride=(2, 2))
    (7): Tanh()
    (8): ConvTranspose2d(32, 1, kernel_size=(3, 1), stride=(2, 2))
    (9): Tanh()
    (10): Trim()
  )
)
MSELoss()
0.0001
150
Adam (
Parameter Group 0
    amsgrad: False
    betas: (0.9, 0.999)
    capturable: False
    eps: 1e-08
    foreach: None
    lr: 0.0001
    maximize: False
    weight_decay: 0
)
[… 2023-02-20 16:17:45.331659
CAE(
  (encoder): Sequential(
    (0): Conv2d(1, 32, kernel_size=(3, 1), stride=(1, 1), padding=same)
    (1): Tanh()
    (2): MaxPool2d(kernel_size=(2, 1), stride=2, padding=0, dilation=1, ceil_mode=False)
    (3): Conv2d(32, 64, kernel_size=(3, 1), stride=(1, 1), padding=same)
    (4): Tanh()
    (5): MaxPool2d(kernel_size=(2, 1), stride=2, padding=0, dilation=1, ceil_mode=False)
    (6): Conv2d(64, 128, kernel_size=(3, 1), stride=(1, 1), padding=same)
    (7): Tanh()
    (8): MaxPool2d(kernel_size=(2, 1), stride=2, padding=0, dilation=1, ceil_mode=False)
    (9): Conv2d(128, 256, kernel_size=(3, 1), stride=(1, 1), padding=same)
    (10): Tanh()
    (11): MaxPool2d(kernel_size=(2, 1), stride=2, padding=0, dilation=1, ceil_mode=False)
    (12): Conv2d(256, 512, kernel_size=(3, 1), stride=(1, 1), padding=same)
    (13): Tanh()
    (14): MaxPool2d(kernel_size=(2, 1), stride=2, padding=0, dilation=1, ceil_mode=False)
  )
  (decoder): Sequential(
    (0): ConvTranspose2d(512, 256, kernel_size=(3, 1), stride=(2, 2))
    (1): Tanh()
    (2): ConvTranspose2d(256, 128, kernel_size=(3, 1), stride=(2, 2))
    (3): Tanh()
    (4): ConvTranspose2d(128, 64, kernel_size=(3, 1), stride=(2, 2))
    (5): Tanh()
    (6): ConvTranspose2d(64, 32, kernel_size=(3, 1), stride=(2, 2))
    (7): Tanh()
    (8): ConvTranspose2d(32, 1, kernel_size=(3, 1), stride=(2, 2))
    (9): Tanh()
    (10): Trim()
  )
)
MSELoss()
0.0001
150
Adam (
Parameter Group 0
    amsgrad: False
    betas: (0.9, 0.999)
    capturable: False
    eps: 1e-08
    foreach: None
    lr: 0.0001
    maximize: False
    weight_decay: 0
)
[… 2023-02-20 16:58:33.940039
CAE1D(
  (encoder): Sequential(
    (0): Conv1d(1, 32, kernel_size=(3,), stride=(1,), padding=same)
    (1): Tanh()
    (2): MaxPool1d(kernel_size=2, stride=2, padding=0, dilation=1, ceil_mode=False)
    (3): Conv1d(32, 64, kernel_size=(3,), stride=(1,), padding=same)
    (4): Tanh()
    (5): MaxPool1d(kernel_size=2, stride=2, padding=0, dilation=1, ceil_mode=False)
    (6): Conv1d(64, 128, kernel_size=(3,), stride=(1,), padding=same)
    (7): Tanh()
    (8): MaxPool1d(kernel_size=2, stride=2, padding=0, dilation=1, ceil_mode=False)
    (9): Conv1d(128, 256, kernel_size=(3,), stride=(1,), padding=same)
    (10): Tanh()
    (11): MaxPool1d(kernel_size=2, stride=2, padding=0, dilation=1, ceil_mode=False)
    (12): Conv1d(256, 512, kernel_size=(3,), stride=(1,), padding=same)
    (13): Tanh()
    (14): MaxPool1d(kernel_size=2, stride=2, padding=0, dilation=1, ceil_mode=False)
  )
  (decoder): Sequential(
    (0): ConvTranspose1d(512, 256, kernel_size=(3,), stride=(2,))
    (1): Tanh()
    (2): ConvTranspose1d(256, 128, kernel_size=(3,), stride=(2,))
    (3): Tanh()
    (4): ConvTranspose1d(128, 64, kernel_size=(3,), stride=(2,))
    (5): Tanh()
    (6): ConvTranspose1d(64, 32, kernel_size=(3,), stride=(2,))
    (7): Tanh()
    (8): ConvTranspose1d(32, 1, kernel_size=(3,), stride=(2,))
    (9): Tanh()
    (10): Trim()
  )
)
MSELoss()
0.0001
150
Adam (
Parameter Group 0
    amsgrad: False
    betas: (0.9, 0.999)
    capturable: False
    eps: 1e-08
    foreach: None
    lr: 0.0001
    maximize: False
    weight_decay: 0
)
[… 2023-02-23 15:31:28.284814
AutoEncoder(
  (encoder): Sequential(
    (0): Linear(in_features=8000, out_features=2000, bias=True)
    (1): LeakyReLU(negative_slope=0.01)
    (2): Linear(in_features=2000, out_features=1000, bias=True)
    (3): LeakyReLU(negative_slope=0.01)
    (4): Linear(in_features=1000, out_features=500, bias=True)
    (5): LeakyReLU(negative_slope=0.01)
    (6): Linear(in_features=500, out_features=250, bias=True)
    (7): LeakyReLU(negative_slope=0.01)
    (8): Linear(in_features=250, out_features=100, bias=True)
    (9): LeakyReLU(negative_slope=0.01)
    (10): Linear(in_features=100, out_features=50, bias=True)
    (11): Tanh()
    (12): Dropout(p=0.1, inplace=False)
  )
  (decoder): Sequential(
    (0): Linear(in_features=50, out_features=100, bias=True)
    (1): LeakyReLU(negative_slope=0.01)
    (2): Linear(in_features=100, out_features=250, bias=True)
    (3): LeakyReLU(negative_slope=0.01)
    (4): Linear(in_features=250, out_features=500, bias=True)
    (5): LeakyReLU(negative_slope=0.01)
    (6): Linear(in_features=500, out_features=1000, bias=True)
    (7): LeakyReLU(negative_slope=0.01)
    (8): Linear(in_features=1000, out_features=2000, bias=True)
    (9): LeakyReLU(negative_slope=0.01)
    (10): Linear(in_features=2000, out_features=8000, bias=True)
    (11): Tanh()
  )
)
MSELoss()
0.0001
150
Adam (
Parameter Group 0
    amsgrad: False
    betas: (0.9, 0.999)
    capturable: False
    eps: 1e-08
    foreach: None
    lr: 0.0001
    maximize: False
    weight_decay: 0
)
[… 2023-02-23 15:47:38.418889
AutoEncoder(
  (encoder): Sequential(
    (0): Linear(in_features=8000, out_features=4000, bias=True)
    (1): Tanh()
    (2): Linear(in_features=4000, out_features=2000, bias=True)
    (3): Tanh()
    (4): Linear(in_features=2000, out_features=1000, bias=True)
    (5): Tanh()
    (6): Linear(in_features=1000, out_features=500, bias=True)
    (7): Tanh()
    (8): Linear(in_features=500, out_features=250, bias=True)
    (9): Tanh()
    (10): Linear(in_features=250, out_features=100, bias=True)
    (11): Tanh()
    (12): Linear(in_features=100, out_features=50, bias=True)
    (13): Tanh()
    (14): Dropout(p=0.1, inplace=False)
  )
  (decoder): Sequential(
    (0): Linear(in_features=50, out_features=100, bias=True)
    (1): Tanh()
    (2): Linear(in_features=100, out_features=250, bias=True)
    (3): Tanh()
    (4): Linear(in_features=250, out_features=500, bias=True)
    (5): Tanh()
    (6): Linear(in_features=500, out_features=1000, bias=True)
    (7): Tanh()
    (8): Linear(in_features=1000, out_features=2000, bias=True)
    (9): Tanh()
    (10): Linear(in_features=2000, out_features=4000, bias=True)
    (11): Tanh()
    (12): Linear(in_features=4000, out_features=8000, bias=True)
    (13): Tanh()
  )
)
MSELoss()
0.0001
150
Adam (
Parameter Group 0
    amsgrad: False
    betas: (0.9, 0.999)
    capturable: False
    eps: 1e-08
    foreach: None
    lr: 0.0001
    maximize: False
    weight_decay: 0
)
[… 2023-02-23 16:04:08.995671
AutoEncoder(
  (encoder): Sequential(
    (0): Linear(in_features=8000, out_features=4000, bias=True)
    (1): Tanh()
    (2): Linear(in_features=4000, out_features=2000, bias=True)
    (3): Tanh()
    (4): Linear(in_features=2000, out_features=1000, bias=True)
    (5): Tanh()
    (6): Linear(in_features=1000, out_features=500, bias=True)
    (7): Tanh()
    (8): Linear(in_features=500, out_features=250, bias=True)
    (9): Tanh()
    (10): Linear(in_features=250, out_features=100, bias=True)
    (11): Tanh()
    (12): Linear(in_features=100, out_features=50, bias=True)
    (13): Tanh()
    (14): Dropout(p=0.1, inplace=False)
  )
  (decoder): Sequential(
    (0): Linear(in_features=50, out_features=100, bias=True)
    (1): Tanh()
    (2): Linear(in_features=100, out_features=250, bias=True)
    (3): Tanh()
    (4): Linear(in_features=250, out_features=500, bias=True)
    (5): Tanh()
    (6): Linear(in_features=500, out_features=1000, bias=True)
    (7): Tanh()
    (8): Linear(in_features=1000, out_features=2000, bias=True)
    (9): Tanh()
    (10): Linear(in_features=2000, out_features=4000, bias=True)
    (11): Tanh()
    (12): Linear(in_features=4000, out_features=8000, bias=True)
    (13): Tanh()
  )
)
MSELoss()
0.0001
150
Adam (
Parameter Group 0
    amsgrad: False
    betas: (0.9, 0.999)
    capturable: False
    eps: 1e-08
    foreach: None
    lr: 0.0001
    maximize: False
    weight_decay: 0
)
[… 2023-02-23 16:27:32.020039
AutoEncoder(
  (encoder): Sequential(
    (0): Linear(in_features=8000, out_features=4000, bias=True)
    (1): Tanh()
    (2): Linear(in_features=4000, out_features=2000, bias=True)
    (3): Tanh()
    (4): Linear(in_features=2000, out_features=1000, bias=True)
    (5): Tanh()
    (6): Linear(in_features=1000, out_features=500, bias=True)
    (7): Tanh()
    (8): Linear(in_features=500, out_features=250, bias=True)
    (9): Tanh()
    (10): Linear(in_features=250, out_features=100, bias=True)
    (11): Tanh()
    (12): Linear(in_features=100, out_features=50, bias=True)
    (13): Tanh()
    (14): Dropout(p=0.1, inplace=False)
  )
  (decoder): Sequential(
    (0): Linear(in_features=50, out_features=100, bias=True)
    (1): Tanh()
    (2): Linear(in_features=100, out_features=250, bias=True)
    (3): Tanh()
    (4): Linear(in_features=250, out_features=500, bias=True)
    (5): Tanh()
    (6): Linear(in_features=500, out_features=1000, bias=True)
    (7): Tanh()
    (8): Linear(in_features=1000, out_features=2000, bias=True)
    (9): Tanh()
    (10): Linear(in_features=2000, out_features=4000, bias=True)
    (11): Tanh()
    (12): Linear(in_features=4000, out_features=8000, bias=True)
    (13): Tanh()
  )
)
MSELoss()
0.0001
150
Adam (
Parameter Group 0
    amsgrad: False
    betas: (0.9, 0.999)
    capturable: False
    eps: 1e-08
    foreach: None
    lr: 0.0001
    maximize: False
    weight_decay: 0
)
[… 2023-02-23 17:49:27.586045
AutoEncoder(
  (encoder): Sequential(
    (0): Linear(in_features=8000, out_features=4000, bias=True)
    (1): Tanh()
    (2): Linear(in_features=4000, out_features=2000, bias=True)
    (3): Tanh()
    (4): Linear(in_features=2000, out_features=1000, bias=True)
    (5): Tanh()
    (6): Linear(in_features=1000, out_features=500, bias=True)
    (7): Tanh()
    (8): Linear(in_features=500, out_features=250, bias=True)
    (9): Tanh()
    (10): Linear(in_features=250, out_features=100, bias=True)
    (11): Tanh()
    (12): Linear(in_features=100, out_features=50, bias=True)
    (13): Tanh()
    (14): Dropout(p=0.1, inplace=False)
  )
  (decoder): Sequential(
    (0): Linear(in_features=50, out_features=100, bias=True)
    (1): Tanh()
    (2): Linear(in_features=100, out_features=250, bias=True)
    (3): Tanh()
    (4): Linear(in_features=250, out_features=500, bias=True)
    (5): Tanh()
    (6): Linear(in_features=500, out_features=1000, bias=True)
    (7): Tanh()
    (8): Linear(in_features=1000, out_features=2000, bias=True)
    (9): Tanh()
    (10): Linear(in_features=2000, out_features=4000, bias=True)
    (11): Tanh()
    (12): Linear(in_features=4000, out_features=8000, bias=True)
    (13): Tanh()
  )
)
MSELoss()
0.01
150
Adam (
Parameter Group 0
    amsgrad: False
    betas: (0.9, 0.999)
    capturable: False
    eps: 1e-08
    foreach: None
    lr: 0.01
    maximize: False
    weight_decay: 0
)
[… 2023-02-23 17:57:39.577962
AutoEncoder(
  (encoder): Sequential(
    (0): Linear(in_features=8000, out_features=4000, bias=True)
    (1): Tanh()
    (2): Linear(in_features=4000, out_features=2000, bias=True)
    (3): Tanh()
    (4): Linear(in_features=2000, out_features=1000, bias=True)
    (5): Tanh()
    (6): Linear(in_features=1000, out_features=500, bias=True)
    (7): Tanh()
    (8): Linear(in_features=500, out_features=250, bias=True)
    (9): Tanh()
    (10): Linear(in_features=250, out_features=100, bias=True)
    (11): Tanh()
    (12): Linear(in_features=100, out_features=50, bias=True)
    (13): Tanh()
    (14): Dropout(p=0.1, inplace=False)
  )
  (decoder): Sequential(
    (0): Linear(in_features=50, out_features=100, bias=True)
    (1): Tanh()
    (2): Linear(in_features=100, out_features=250, bias=True)
    (3): Tanh()
    (4): Linear(in_features=250, out_features=500, bias=True)
    (5): Tanh()
    (6): Linear(in_features=500, out_features=1000, bias=True)
    (7): Tanh()
    (8): Linear(in_features=1000, out_features=2000, bias=True)
    (9): Tanh()
    (10): Linear(in_features=2000, out_features=4000, bias=True)
    (11): Tanh()
    (12): Linear(in_features=4000, out_features=8000, bias=True)
    (13): Tanh()
  )
)
MSELoss()
0.0001
150
Adam (
Parameter Group 0
    amsgrad: False
    betas: (0.9, 0.999)
    capturable: False
    eps: 1e-08
    foreach: None
    lr: 0.0001
    maximize: False
    weight_decay: 0
)
[… 2023-02-23 18:03:51.706676
AutoEncoder(
  (encoder): Sequential(
    (0): Linear(in_features=8000, out_features=4000, bias=True)
    (1): Tanh()
    (2): Linear(in_features=4000, out_features=2000, bias=True)
    (3): Tanh()
    (4): Linear(in_features=2000, out_features=1000, bias=True)
    (5): Tanh()
    (6): Linear(in_features=1000, out_features=500, bias=True)
    (7): Tanh()
    (8): Linear(in_features=500, out_features=250, bias=True)
    (9): Tanh()
    (10): Linear(in_features=250, out_features=100, bias=True)
    (11): Tanh()
    (12): Linear(in_features=100, out_features=50, bias=True)
    (13): Tanh()
    (14): Dropout(p=0.1, inplace=False)
  )
  (decoder): Sequential(
    (0): Linear(in_features=50, out_features=100, bias=True)
    (1): Tanh()
    (2): Linear(in_features=100, out_features=250, bias=True)
    (3): Tanh()
    (4): Linear(in_features=250, out_features=500, bias=True)
    (5): Tanh()
    (6): Linear(in_features=500, out_features=1000, bias=True)
    (7): Tanh()
    (8): Linear(in_features=1000, out_features=2000, bias=True)
    (9): Tanh()
    (10): Linear(in_features=2000, out_features=4000, bias=True)
    (11): Tanh()
    (12): Linear(in_features=4000, out_features=8000, bias=True)
    (13): Tanh()
  )
)
MSELoss()
1e-06
150
Adam (
Parameter Group 0
    amsgrad: False
    betas: (0.9, 0.999)
    capturable: False
    eps: 1e-08
    foreach: None
    lr: 1e-06
    maximize: False
    weight_decay: 0
)
[… 2023-02-23 18:13:12.160166
AutoEncoder(
  (encoder): Sequential(
    (0): Linear(in_features=8000, out_features=4000, bias=True)
    (1): Tanh()
    (2): Linear(in_features=4000, out_features=2000, bias=True)
    (3): Tanh()
    (4): Linear(in_features=2000, out_features=1000, bias=True)
    (5): Tanh()
    (6): Linear(in_features=1000, out_features=500, bias=True)
    (7): Tanh()
    (8): Linear(in_features=500, out_features=250, bias=True)
    (9): Tanh()
    (10): Linear(in_features=250, out_features=100, bias=True)
    (11): Tanh()
    (12): Linear(in_features=100, out_features=50, bias=True)
    (13): Tanh()
    (14): Dropout(p=0.1, inplace=False)
  )
  (decoder): Sequential(
    (0): Linear(in_features=50, out_features=100, bias=True)
    (1): Tanh()
    (2): Linear(in_features=100, out_features=250, bias=True)
    (3): Tanh()
    (4): Linear(in_features=250, out_features=500, bias=True)
    (5): Tanh()
    (6): Linear(in_features=500, out_features=1000, bias=True)
    (7): Tanh()
    (8): Linear(in_features=1000, out_features=2000, bias=True)
    (9): Tanh()
    (10): Linear(in_features=2000, out_features=4000, bias=True)
    (11): Tanh()
    (12): Linear(in_features=4000, out_features=8000, bias=True)
    (13): Tanh()
  )
)
MSELoss()
0.01
150
Adam (
Parameter Group 0
    amsgrad: False
    betas: (0.9, 0.999)
    capturable: False
    eps: 1e-08
    foreach: None
    lr: 0.01
    maximize: False
    weight_decay: 0
)
[… 2023-02-23 18:31:42.651367
AutoEncoder(
  (encoder): Sequential(
    (0): Linear(in_features=8000, out_features=4000, bias=True)
    (1): Tanh()
    (2): Linear(in_features=4000, out_features=2000, bias=True)
    (3): Tanh()
    (4): Linear(in_features=2000, out_features=1000, bias=True)
    (5): Tanh()
    (6): Linear(in_features=1000, out_features=500, bias=True)
    (7): Tanh()
    (8): Linear(in_features=500, out_features=250, bias=True)
    (9): Tanh()
    (10): Linear(in_features=250, out_features=100, bias=True)
    (11): Tanh()
    (12): Linear(in_features=100, out_features=50, bias=True)
    (13): Tanh()
    (14): Dropout(p=0.1, inplace=False)
  )
  (decoder): Sequential(
    (0): Linear(in_features=50, out_features=100, bias=True)
    (1): Tanh()
    (2): Linear(in_features=100, out_features=250, bias=True)
    (3): Tanh()
    (4): Linear(in_features=250, out_features=500, bias=True)
    (5): Tanh()
    (6): Linear(in_features=500, out_features=1000, bias=True)
    (7): Tanh()
    (8): Linear(in_features=1000, out_features=2000, bias=True)
    (9): Tanh()
    (10): Linear(in_features=2000, out_features=4000, bias=True)
    (11): Tanh()
    (12): Linear(in_features=4000, out_features=8000, bias=True)
    (13): Tanh()
  )
)
MSELoss()
1e-06
150
Adam (
Parameter Group 0
    amsgrad: False
    betas: (0.9, 0.999)
    capturable: False
    eps: 1e-08
    foreach: None
    lr: 1e-06
    maximize: False
    weight_decay: 0
)
[… 2023-02-23 18:41:56.607104
AutoEncoder(
  (encoder): Sequential(
    (0): Linear(in_features=8000, out_features=4000, bias=True)
    (1): Tanh()
    (2): Linear(in_features=4000, out_features=2000, bias=True)
    (3): Tanh()
    (4): Linear(in_features=2000, out_features=1000, bias=True)
    (5): Tanh()
    (6): Linear(in_features=1000, out_features=500, bias=True)
    (7): Tanh()
    (8): Linear(in_features=500, out_features=250, bias=True)
    (9): Tanh()
    (10): Linear(in_features=250, out_features=100, bias=True)
    (11): Tanh()
    (12): Linear(in_features=100, out_features=50, bias=True)
    (13): Tanh()
    (14): Dropout(p=0.1, inplace=False)
  )
  (decoder): Sequential(
    (0): Linear(in_features=50, out_features=100, bias=True)
    (1): Tanh()
    (2): Linear(in_features=100, out_features=250, bias=True)
    (3): Tanh()
    (4): Linear(in_features=250, out_features=500, bias=True)
    (5): Tanh()
    (6): Linear(in_features=500, out_features=1000, bias=True)
    (7): Tanh()
    (8): Linear(in_features=1000, out_features=2000, bias=True)
    (9): Tanh()
    (10): Linear(in_features=2000, out_features=4000, bias=True)
    (11): Tanh()
    (12): Linear(in_features=4000, out_features=8000, bias=True)
    (13): Tanh()
  )
)
MSELoss()
0.01
150
Adam (
Parameter Group 0
    amsgrad: False
    betas: (0.9, 0.999)
    capturable: False
    eps: 1e-08
    foreach: None
    lr: 0.01
    maximize: False
    weight_decay: 0
)
[… 2023-02-23 18:52:46.693747
AutoEncoder(
  (encoder): Sequential(
    (0): Linear(in_features=8000, out_features=4000, bias=True)
    (1): Tanh()
    (2): Linear(in_features=4000, out_features=2000, bias=True)
    (3): Tanh()
    (4): Linear(in_features=2000, out_features=1000, bias=True)
    (5): Tanh()
    (6): Linear(in_features=1000, out_features=500, bias=True)
    (7): Tanh()
    (8): Linear(in_features=500, out_features=250, bias=True)
    (9): Tanh()
    (10): Linear(in_features=250, out_features=100, bias=True)
    (11): Tanh()
    (12): Linear(in_features=100, out_features=50, bias=True)
    (13): Tanh()
    (14): Dropout(p=0.1, inplace=False)
  )
  (decoder): Sequential(
    (0): Linear(in_features=50, out_features=100, bias=True)
    (1): Tanh()
    (2): Linear(in_features=100, out_features=250, bias=True)
    (3): Tanh()
    (4): Linear(in_features=250, out_features=500, bias=True)
    (5): Tanh()
    (6): Linear(in_features=500, out_features=1000, bias=True)
    (7): Tanh()
    (8): Linear(in_features=1000, out_features=2000, bias=True)
    (9): Tanh()
    (10): Linear(in_features=2000, out_features=4000, bias=True)
    (11): Tanh()
    (12): Linear(in_features=4000, out_features=8000, bias=True)
    (13): Tanh()
  )
)
MSELoss()
0.0001
150
Adam (
Parameter Group 0
    amsgrad: False
    betas: (0.9, 0.999)
    capturable: False
    eps: 1e-08
    foreach: None
    lr: 0.0001
    maximize: False
    weight_decay: 0
)
[… 2023-02-23 18:58:33.343612
AutoEncoder(
  (encoder): Sequential(
    (0): Linear(in_features=8000, out_features=4000, bias=True)
    (1): Tanh()
    (2): Linear(in_features=4000, out_features=2000, bias=True)
    (3): Tanh()
    (4): Linear(in_features=2000, out_features=1000, bias=True)
    (5): Tanh()
    (6): Linear(in_features=1000, out_features=500, bias=True)
    (7): Tanh()
    (8): Linear(in_features=500, out_features=250, bias=True)
    (9): Tanh()
    (10): Linear(in_features=250, out_features=100, bias=True)
    (11): Tanh()
    (12): Linear(in_features=100, out_features=50, bias=True)
    (13): Tanh()
    (14): Dropout(p=0.1, inplace=False)
  )
  (decoder): Sequential(
    (0): Linear(in_features=50, out_features=100, bias=True)
    (1): Tanh()
    (2): Linear(in_features=100, out_features=250, bias=True)
    (3): Tanh()
    (4): Linear(in_features=250, out_features=500, bias=True)
    (5): Tanh()
    (6): Linear(in_features=500, out_features=1000, bias=True)
    (7): Tanh()
    (8): Linear(in_features=1000, out_features=2000, bias=True)
    (9): Tanh()
    (10): Linear(in_features=2000, out_features=4000, bias=True)
    (11): Tanh()
    (12): Linear(in_features=4000, out_features=8000, bias=True)
    (13): Tanh()
  )
)
MSELoss()
1e-06
150
Adam (
Parameter Group 0
    amsgrad: False
    betas: (0.9, 0.999)
    capturable: False
    eps: 1e-08
    foreach: None
    lr: 1e-06
    maximize: False
    weight_decay: 0
)
[… 2023-02-23 19:03:48.102206
AutoEncoder(
  (encoder): Sequential(
    (0): Linear(in_features=8000, out_features=4000, bias=True)
    (1): Tanh()
    (2): Linear(in_features=4000, out_features=2000, bias=True)
    (3): Tanh()
    (4): Linear(in_features=2000, out_features=1000, bias=True)
    (5): Tanh()
    (6): Linear(in_features=1000, out_features=500, bias=True)
    (7): Tanh()
    (8): Linear(in_features=500, out_features=250, bias=True)
    (9): Tanh()
    (10): Linear(in_features=250, out_features=100, bias=True)
    (11): Tanh()
    (12): Linear(in_features=100, out_features=50, bias=True)
    (13): Tanh()
    (14): Dropout(p=0.1, inplace=False)
  )
  (decoder): Sequential(
    (0): Linear(in_features=50, out_features=100, bias=True)
    (1): Tanh()
    (2): Linear(in_features=100, out_features=250, bias=True)
    (3): Tanh()
    (4): Linear(in_features=250, out_features=500, bias=True)
    (5): Tanh()
    (6): Linear(in_features=500, out_features=1000, bias=True)
    (7): Tanh()
    (8): Linear(in_features=1000, out_features=2000, bias=True)
    (9): Tanh()
    (10): Linear(in_features=2000, out_features=4000, bias=True)
    (11): Tanh()
    (12): Linear(in_features=4000, out_features=8000, bias=True)
    (13): Tanh()
  )
)
MSELoss()
1e-06
150
Adam (
Parameter Group 0
    amsgrad: False
    betas: (0.9, 0.999)
    capturable: False
    eps: 1e-08
    foreach: None
    lr: 1e-06
    maximize: False
    weight_decay: 0
)
[… 2023-02-23 19:09:10.309466
AutoEncoder(
  (encoder): Sequential(
    (0): Linear(in_features=8000, out_features=4000, bias=True)
    (1): Tanh()
    (2): Linear(in_features=4000, out_features=2000, bias=True)
    (3): Tanh()
    (4): Linear(in_features=2000, out_features=1000, bias=True)
    (5): Tanh()
    (6): Linear(in_features=1000, out_features=500, bias=True)
    (7): Tanh()
    (8): Linear(in_features=500, out_features=250, bias=True)
    (9): Tanh()
    (10): Linear(in_features=250, out_features=100, bias=True)
    (11): Tanh()
    (12): Linear(in_features=100, out_features=50, bias=True)
    (13): Tanh()
    (14): Dropout(p=0.1, inplace=False)
  )
  (decoder): Sequential(
    (0): Linear(in_features=50, out_features=100, bias=True)
    (1): Tanh()
    (2): Linear(in_features=100, out_features=250, bias=True)
    (3): Tanh()
    (4): Linear(in_features=250, out_features=500, bias=True)
    (5): Tanh()
    (6): Linear(in_features=500, out_features=1000, bias=True)
    (7): Tanh()
    (8): Linear(in_features=1000, out_features=2000, bias=True)
    (9): Tanh()
    (10): Linear(in_features=2000, out_features=4000, bias=True)
    (11): Tanh()
    (12): Linear(in_features=4000, out_features=8000, bias=True)
    (13): Tanh()
  )
)
MSELoss()
1e-06
150
Adam (
Parameter Group 0
    amsgrad: False
    betas: (0.9, 0.999)
    capturable: False
    eps: 1e-08
    foreach: None
    lr: 1e-06
    maximize: False
    weight_decay: 0
)
[… 2023-02-23 19:45:00.173659
AutoEncoder(
  (encoder): Sequential(
    (0): Linear(in_features=8000, out_features=4000, bias=True)
    (1): Tanh()
    (2): Linear(in_features=4000, out_features=2000, bias=True)
    (3): Tanh()
    (4): Linear(in_features=2000, out_features=1000, bias=True)
    (5): Tanh()
    (6): Linear(in_features=1000, out_features=500, bias=True)
    (7): Tanh()
    (8): Linear(in_features=500, out_features=250, bias=True)
    (9): Tanh()
    (10): Linear(in_features=250, out_features=100, bias=True)
    (11): Tanh()
    (12): Linear(in_features=100, out_features=50, bias=True)
    (13): Tanh()
    (14): Dropout(p=0.1, inplace=False)
  )
  (decoder): Sequential(
    (0): Linear(in_features=50, out_features=100, bias=True)
    (1): Tanh()
    (2): Linear(in_features=100, out_features=250, bias=True)
    (3): Tanh()
    (4): Linear(in_features=250, out_features=500, bias=True)
    (5): Tanh()
    (6): Linear(in_features=500, out_features=1000, bias=True)
    (7): Tanh()
    (8): Linear(in_features=1000, out_features=2000, bias=True)
    (9): Tanh()
    (10): Linear(in_features=2000, out_features=4000, bias=True)
    (11): Tanh()
    (12): Linear(in_features=4000, out_features=8000, bias=True)
    (13): Tanh()
  )
)
MSELoss()
0.0001
150
Adam (
Parameter Group 0
    amsgrad: False
    betas: (0.9, 0.999)
    capturable: False
    eps: 1e-08
    foreach: None
    lr: 0.0001
    maximize: False
    weight_decay: 0
)
[… 2023-02-23 19:55:40.177005
AutoEncoder(
  (encoder): Sequential(
    (0): Linear(in_features=8000, out_features=4000, bias=True)
    (1): Tanh()
    (2): Linear(in_features=4000, out_features=2000, bias=True)
    (3): Tanh()
    (4): Linear(in_features=2000, out_features=1000, bias=True)
    (5): Tanh()
    (6): Linear(in_features=1000, out_features=500, bias=True)
    (7): Tanh()
    (8): Linear(in_features=500, out_features=250, bias=True)
    (9): Tanh()
    (10): Linear(in_features=250, out_features=100, bias=True)
    (11): Tanh()
    (12): Linear(in_features=100, out_features=50, bias=True)
    (13): Tanh()
    (14): Dropout(p=0.1, inplace=False)
  )
  (decoder): Sequential(
    (0): Linear(in_features=50, out_features=100, bias=True)
    (1): Tanh()
    (2): Linear(in_features=100, out_features=250, bias=True)
    (3): Tanh()
    (4): Linear(in_features=250, out_features=500, bias=True)
    (5): Tanh()
    (6): Linear(in_features=500, out_features=1000, bias=True)
    (7): Tanh()
    (8): Linear(in_features=1000, out_features=2000, bias=True)
    (9): Tanh()
    (10): Linear(in_features=2000, out_features=4000, bias=True)
    (11): Tanh()
    (12): Linear(in_features=4000, out_features=8000, bias=True)
    (13): Tanh()
  )
)
MSELoss()
1e-06
150
Adam (
Parameter Group 0
    amsgrad: False
    betas: (0.9, 0.999)
    capturable: False
    eps: 1e-08
    foreach: None
    lr: 1e-06
    maximize: False
    weight_decay: 0
)
[… 2023-02-25 11:39:44.410406
AutoEncoder(
  (lin1): Sequential(
    (0): Linear(in_features=8000, out_features=4000, bias=True)
    (1): Tanh()
  )
  (lin2): Sequential(
    (0): Linear(in_features=4000, out_features=2000, bias=True)
    (1): Tanh()
  )
  (lin3): Sequential(
    (0): Linear(in_features=2000, out_features=1000, bias=True)
    (1): Tanh()
  )
  (lin4): Sequential(
    (0): Linear(in_features=1000, out_features=500, bias=True)
    (1): Tanh()
  )
  (lin5): Sequential(
    (0): Linear(in_features=500, out_features=250, bias=True)
    (1): Tanh()
  )
  (lin6): Sequential(
    (0): Linear(in_features=250, out_features=100, bias=True)
    (1): Tanh()
  )
  (lin7): Sequential(
    (0): Linear(in_features=100, out_features=50, bias=True)
    (1): Tanh()
  )
  (drop): Dropout(p=0.1, inplace=False)
  (delin1): Sequential(
    (0): Linear(in_features=50, out_features=100, bias=True)
    (1): Tanh()
  )
  (delin2): Sequential(
    (0): Linear(in_features=100, out_features=250, bias=True)
    (1): Tanh()
  )
  (delin3): Sequential(
    (0): Linear(in_features=250, out_features=500, bias=True)
    (1): Tanh()
  )
  (delin4): Sequential(
    (0): Linear(in_features=500, out_features=1000, bias=True)
    (1): Tanh()
  )
  (delin5): Sequential(
    (0): Linear(in_features=1000, out_features=2000, bias=True)
    (1): Tanh()
  )
  (delin6): Sequential(
    (0): Linear(in_features=2000, out_features=4000, bias=True)
    (1): Tanh()
  )
  (delin7): Sequential(
    (0): Linear(in_features=4000, out_features=8000, bias=True)
    (1): Tanh()
  )
)
MSELoss()
0.0001
150
Adam (
Parameter Group 0
    amsgrad: False
    betas: (0.9, 0.999)
    capturable: False
    eps: 1e-08
    foreach: None
    lr: 0.0001
    maximize: False
    weight_decay: 0
)
[… 2023-02-25 11:51:38.587764
AutoEncoder(
  (lin1): Sequential(
    (0): Linear(in_features=8000, out_features=4000, bias=True)
    (1): Tanh()
  )
  (lin2): Sequential(
    (0): Linear(in_features=4000, out_features=2000, bias=True)
    (1): Tanh()
  )
  (lin3): Sequential(
    (0): Linear(in_features=2000, out_features=1000, bias=True)
    (1): Tanh()
  )
  (lin4): Sequential(
    (0): Linear(in_features=1000, out_features=500, bias=True)
    (1): Tanh()
  )
  (lin5): Sequential(
    (0): Linear(in_features=500, out_features=250, bias=True)
    (1): Tanh()
  )
  (lin6): Sequential(
    (0): Linear(in_features=250, out_features=100, bias=True)
    (1): Tanh()
  )
  (lin7): Sequential(
    (0): Linear(in_features=100, out_features=50, bias=True)
    (1): Tanh()
  )
  (drop): Dropout(p=0.1, inplace=False)
  (delin1): Sequential(
    (0): Linear(in_features=50, out_features=100, bias=True)
    (1): Tanh()
  )
  (delin2): Sequential(
    (0): Linear(in_features=100, out_features=250, bias=True)
    (1): Tanh()
  )
  (delin3): Sequential(
    (0): Linear(in_features=250, out_features=500, bias=True)
    (1): Tanh()
  )
  (delin4): Sequential(
    (0): Linear(in_features=500, out_features=1000, bias=True)
    (1): Tanh()
  )
  (delin5): Sequential(
    (0): Linear(in_features=1000, out_features=2000, bias=True)
    (1): Tanh()
  )
  (delin6): Sequential(
    (0): Linear(in_features=2000, out_features=4000, bias=True)
    (1): Tanh()
  )
  (delin7): Sequential(
    (0): Linear(in_features=4000, out_features=8000, bias=True)
    (1): Tanh()
  )
)
MSELoss()
0.0001
150
Adam (
Parameter Group 0
    amsgrad: False
    betas: (0.9, 0.999)
    capturable: False
    eps: 1e-08
    foreach: None
    lr: 0.0001
    maximize: False
    weight_decay: 0
)
[… 2023-02-25 12:42:40.020685
AutoEncoder(
  (lin1): Sequential(
    (0): Linear(in_features=8000, out_features=4000, bias=True)
    (1): Tanh()
  )
  (lin2): Sequential(
    (0): Linear(in_features=4000, out_features=2000, bias=True)
    (1): Tanh()
  )
  (lin3): Sequential(
    (0): Linear(in_features=2000, out_features=1000, bias=True)
    (1): Tanh()
  )
  (lin4): Sequential(
    (0): Linear(in_features=1000, out_features=500, bias=True)
    (1): Tanh()
  )
  (lin5): Sequential(
    (0): Linear(in_features=500, out_features=250, bias=True)
    (1): Tanh()
  )
  (lin6): Sequential(
    (0): Linear(in_features=250, out_features=100, bias=True)
    (1): Tanh()
  )
  (lin7): Sequential(
    (0): Linear(in_features=100, out_features=50, bias=True)
    (1): Tanh()
  )
  (drop): Dropout(p=0.1, inplace=False)
  (delin1): Sequential(
    (0): Linear(in_features=50, out_features=100, bias=True)
    (1): Tanh()
  )
  (delin2): Sequential(
    (0): Linear(in_features=100, out_features=250, bias=True)
    (1): Tanh()
  )
  (delin3): Sequential(
    (0): Linear(in_features=250, out_features=500, bias=True)
    (1): Tanh()
  )
  (delin4): Sequential(
    (0): Linear(in_features=500, out_features=1000, bias=True)
    (1): Tanh()
  )
  (delin5): Sequential(
    (0): Linear(in_features=1000, out_features=2000, bias=True)
    (1): Tanh()
  )
  (delin6): Sequential(
    (0): Linear(in_features=2000, out_features=4000, bias=True)
    (1): Tanh()
  )
  (delin7): Sequential(
    (0): Linear(in_features=4000, out_features=8000, bias=True)
    (1): Tanh()
  )
)
MSELoss()
0.0001
150
Adam (
Parameter Group 0
    amsgrad: False
    betas: (0.9, 0.999)
    capturable: False
    eps: 1e-08
    foreach: None
    lr: 0.0001
    maximize: False
    weight_decay: 0
)
[… 2023-02-25 12:48:08.138143
AutoEncoder(
  (lin1): Sequential(
    (0): Linear(in_features=8000, out_features=4000, bias=True)
    (1): Tanh()
  )
  (lin2): Sequential(
    (0): Linear(in_features=4000, out_features=2000, bias=True)
    (1): Tanh()
  )
  (lin3): Sequential(
    (0): Linear(in_features=2000, out_features=1000, bias=True)
    (1): Tanh()
  )
  (lin4): Sequential(
    (0): Linear(in_features=1000, out_features=500, bias=True)
    (1): Tanh()
  )
  (lin5): Sequential(
    (0): Linear(in_features=500, out_features=250, bias=True)
    (1): Tanh()
  )
  (lin6): Sequential(
    (0): Linear(in_features=250, out_features=100, bias=True)
    (1): Tanh()
  )
  (lin7): Sequential(
    (0): Linear(in_features=100, out_features=50, bias=True)
    (1): Tanh()
  )
  (drop): Dropout(p=0.1, inplace=False)
  (delin1): Sequential(
    (0): Linear(in_features=50, out_features=100, bias=True)
    (1): Tanh()
  )
  (delin2): Sequential(
    (0): Linear(in_features=100, out_features=250, bias=True)
    (1): Tanh()
  )
  (delin3): Sequential(
    (0): Linear(in_features=250, out_features=500, bias=True)
    (1): Tanh()
  )
  (delin4): Sequential(
    (0): Linear(in_features=500, out_features=1000, bias=True)
    (1): Tanh()
  )
  (delin5): Sequential(
    (0): Linear(in_features=1000, out_features=2000, bias=True)
    (1): Tanh()
  )
  (delin6): Sequential(
    (0): Linear(in_features=2000, out_features=4000, bias=True)
    (1): Tanh()
  )
  (delin7): Sequential(
    (0): Linear(in_features=4000, out_features=8000, bias=True)
    (1): Tanh()
  )
)
MSELoss()
0.0001
150
Adam (
Parameter Group 0
    amsgrad: False
    betas: (0.9, 0.999)
    capturable: False
    eps: 1e-08
    foreach: None
    lr: 0.0001
    maximize: False
    weight_decay: 0
)
[… 2023-02-25 12:52:25.517348
AutoEncoder(
  (lin1): Sequential(
    (0): Linear(in_features=8000, out_features=4000, bias=True)
    (1): Tanh()
  )
  (lin2): Sequential(
    (0): Linear(in_features=4000, out_features=2000, bias=True)
    (1): Tanh()
  )
  (lin3): Sequential(
    (0): Linear(in_features=2000, out_features=1000, bias=True)
    (1): Tanh()
  )
  (lin4): Sequential(
    (0): Linear(in_features=1000, out_features=500, bias=True)
    (1): Tanh()
  )
  (lin5): Sequential(
    (0): Linear(in_features=500, out_features=250, bias=True)
    (1): Tanh()
  )
  (lin6): Sequential(
    (0): Linear(in_features=250, out_features=100, bias=True)
    (1): Tanh()
  )
  (lin7): Sequential(
    (0): Linear(in_features=100, out_features=50, bias=True)
    (1): Tanh()
  )
  (drop): Dropout(p=0.1, inplace=False)
  (delin1): Sequential(
    (0): Linear(in_features=50, out_features=100, bias=True)
    (1): Tanh()
  )
  (delin2): Sequential(
    (0): Linear(in_features=100, out_features=250, bias=True)
    (1): Tanh()
  )
  (delin3): Sequential(
    (0): Linear(in_features=250, out_features=500, bias=True)
    (1): Tanh()
  )
  (delin4): Sequential(
    (0): Linear(in_features=500, out_features=1000, bias=True)
    (1): Tanh()
  )
  (delin5): Sequential(
    (0): Linear(in_features=1000, out_features=2000, bias=True)
    (1): Tanh()
  )
  (delin6): Sequential(
    (0): Linear(in_features=2000, out_features=4000, bias=True)
    (1): Tanh()
  )
  (delin7): Sequential(
    (0): Linear(in_features=4000, out_features=8000, bias=True)
    (1): Tanh()
  )
)
MSELoss()
0.0001
100
Adam (
Parameter Group 0
    amsgrad: False
    betas: (0.9, 0.999)
    capturable: False
    eps: 1e-08
    foreach: None
    lr: 0.0001
    maximize: False
    weight_decay: 0
)
[… 2023-02-25 12:58:49.708181
AutoEncoder(
  (lin1): Sequential(
    (0): Linear(in_features=8000, out_features=4000, bias=True)
    (1): Tanh()
  )
  (lin2): Sequential(
    (0): Linear(in_features=4000, out_features=2000, bias=True)
    (1): Tanh()
  )
  (lin3): Sequential(
    (0): Linear(in_features=2000, out_features=1000, bias=True)
    (1): Tanh()
  )
  (lin4): Sequential(
    (0): Linear(in_features=1000, out_features=500, bias=True)
    (1): Tanh()
  )
  (lin5): Sequential(
    (0): Linear(in_features=500, out_features=250, bias=True)
    (1): Tanh()
  )
  (lin6): Sequential(
    (0): Linear(in_features=250, out_features=100, bias=True)
    (1): Tanh()
  )
  (lin7): Sequential(
    (0): Linear(in_features=100, out_features=50, bias=True)
    (1): Tanh()
  )
  (drop): Dropout(p=0.1, inplace=False)
  (delin1): Sequential(
    (0): Linear(in_features=50, out_features=100, bias=True)
    (1): Tanh()
  )
  (delin2): Sequential(
    (0): Linear(in_features=100, out_features=250, bias=True)
    (1): Tanh()
  )
  (delin3): Sequential(
    (0): Linear(in_features=250, out_features=500, bias=True)
    (1): Tanh()
  )
  (delin4): Sequential(
    (0): Linear(in_features=500, out_features=1000, bias=True)
    (1): Tanh()
  )
  (delin5): Sequential(
    (0): Linear(in_features=1000, out_features=2000, bias=True)
    (1): Tanh()
  )
  (delin6): Sequential(
    (0): Linear(in_features=2000, out_features=4000, bias=True)
    (1): Tanh()
  )
  (delin7): Sequential(
    (0): Linear(in_features=4000, out_features=8000, bias=True)
    (1): Tanh()
  )
)
MSELoss()
0.0001
150
Adam (
Parameter Group 0
    amsgrad: False
    betas: (0.9, 0.999)
    capturable: False
    eps: 1e-08
    foreach: None
    lr: 0.0001
    maximize: False
    weight_decay: 0
)
[… 2023-02-25 13:05:06.958298
AutoEncoder(
  (lin1): Sequential(
    (0): Linear(in_features=8000, out_features=4000, bias=True)
    (1): Tanh()
  )
  (lin2): Sequential(
    (0): Linear(in_features=4000, out_features=2000, bias=True)
    (1): Tanh()
  )
  (lin3): Sequential(
    (0): Linear(in_features=2000, out_features=1000, bias=True)
    (1): Tanh()
  )
  (lin4): Sequential(
    (0): Linear(in_features=1000, out_features=500, bias=True)
    (1): Tanh()
  )
  (lin5): Sequential(
    (0): Linear(in_features=500, out_features=250, bias=True)
    (1): Tanh()
  )
  (lin6): Sequential(
    (0): Linear(in_features=250, out_features=100, bias=True)
    (1): Tanh()
  )
  (lin7): Sequential(
    (0): Linear(in_features=100, out_features=50, bias=True)
    (1): Tanh()
  )
  (drop): Dropout(p=0.1, inplace=False)
  (delin1): Sequential(
    (0): Linear(in_features=50, out_features=100, bias=True)
    (1): Tanh()
  )
  (delin2): Sequential(
    (0): Linear(in_features=100, out_features=250, bias=True)
    (1): Tanh()
  )
  (delin3): Sequential(
    (0): Linear(in_features=250, out_features=500, bias=True)
    (1): Tanh()
  )
  (delin4): Sequential(
    (0): Linear(in_features=500, out_features=1000, bias=True)
    (1): Tanh()
  )
  (delin5): Sequential(
    (0): Linear(in_features=1000, out_features=2000, bias=True)
    (1): Tanh()
  )
  (delin6): Sequential(
    (0): Linear(in_features=2000, out_features=4000, bias=True)
    (1): Tanh()
  )
  (delin7): Sequential(
    (0): Linear(in_features=4000, out_features=8000, bias=True)
    (1): Tanh()
  )
)
MSELoss()
0.0001
150
Adam (
Parameter Group 0
    amsgrad: False
    betas: (0.9, 0.999)
    capturable: False
    eps: 1e-08
    foreach: None
    lr: 0.0001
    maximize: False
    weight_decay: 0
)
[… 2023-02-25 13:40:18.621842
AutoEncoder(
  (lin1): Sequential(
    (0): Linear(in_features=8000, out_features=4000, bias=True)
    (1): Tanh()
  )
  (lin2): Sequential(
    (0): Linear(in_features=4000, out_features=2000, bias=True)
    (1): Tanh()
  )
  (lin3): Sequential(
    (0): Linear(in_features=2000, out_features=1000, bias=True)
    (1): Tanh()
  )
  (lin4): Sequential(
    (0): Linear(in_features=1000, out_features=500, bias=True)
    (1): Tanh()
  )
  (lin5): Sequential(
    (0): Linear(in_features=500, out_features=250, bias=True)
    (1): Tanh()
  )
  (lin6): Sequential(
    (0): Linear(in_features=250, out_features=100, bias=True)
    (1): Tanh()
  )
  (lin7): Sequential(
    (0): Linear(in_features=100, out_features=50, bias=True)
    (1): Tanh()
  )
  (drop): Dropout(p=0.1, inplace=False)
  (delin1): Sequential(
    (0): Linear(in_features=50, out_features=100, bias=True)
    (1): Tanh()
  )
  (delin2): Sequential(
    (0): Linear(in_features=100, out_features=250, bias=True)
    (1): Tanh()
  )
  (delin3): Sequential(
    (0): Linear(in_features=250, out_features=500, bias=True)
    (1): Tanh()
  )
  (delin4): Sequential(
    (0): Linear(in_features=500, out_features=1000, bias=True)
    (1): Tanh()
  )
  (delin5): Sequential(
    (0): Linear(in_features=1000, out_features=2000, bias=True)
    (1): Tanh()
  )
  (delin6): Sequential(
    (0): Linear(in_features=2000, out_features=4000, bias=True)
    (1): Tanh()
  )
  (delin7): Sequential(
    (0): Linear(in_features=4000, out_features=8000, bias=True)
    (1): Tanh()
  )
)
MSELoss()
0.0001
150
Adam (
Parameter Group 0
    amsgrad: False
    betas: (0.9, 0.999)
    capturable: False
    eps: 1e-08
    foreach: None
    lr: 0.0001
    maximize: False
    weight_decay: 0
)
[… 2023-02-25 13:47:09.876241
AutoEncoder(
  (lin1): Sequential(
    (0): Linear(in_features=8000, out_features=4000, bias=True)
    (1): Tanh()
  )
  (lin2): Sequential(
    (0): Linear(in_features=4000, out_features=2000, bias=True)
    (1): Tanh()
  )
  (lin3): Sequential(
    (0): Linear(in_features=2000, out_features=1000, bias=True)
    (1): Tanh()
  )
  (lin4): Sequential(
    (0): Linear(in_features=1000, out_features=500, bias=True)
    (1): Tanh()
  )
  (lin5): Sequential(
    (0): Linear(in_features=500, out_features=250, bias=True)
    (1): Tanh()
  )
  (lin6): Sequential(
    (0): Linear(in_features=250, out_features=100, bias=True)
    (1): Tanh()
  )
  (lin7): Sequential(
    (0): Linear(in_features=100, out_features=50, bias=True)
    (1): Tanh()
  )
  (drop): Dropout(p=0.1, inplace=False)
  (delin1): Sequential(
    (0): Linear(in_features=50, out_features=100, bias=True)
    (1): Tanh()
  )
  (delin2): Sequential(
    (0): Linear(in_features=100, out_features=250, bias=True)
    (1): Tanh()
  )
  (delin3): Sequential(
    (0): Linear(in_features=250, out_features=500, bias=True)
    (1): Tanh()
  )
  (delin4): Sequential(
    (0): Linear(in_features=500, out_features=1000, bias=True)
    (1): Tanh()
  )
  (delin5): Sequential(
    (0): Linear(in_features=1000, out_features=2000, bias=True)
    (1): Tanh()
  )
  (delin6): Sequential(
    (0): Linear(in_features=2000, out_features=4000, bias=True)
    (1): Tanh()
  )
  (delin7): Sequential(
    (0): Linear(in_features=4000, out_features=8000, bias=True)
    (1): Tanh()
  )
)
MSELoss()
0.0001
150
Adam (
Parameter Group 0
    amsgrad: False
    betas: (0.9, 0.999)
    capturable: False
    eps: 1e-08
    foreach: None
    lr: 0.0001
    maximize: False
    weight_decay: 0
)
[… 2023-02-25 17:16:17.845759
CAE(
  (conv1): Sequential(
    (0): Conv2d(1, 32, kernel_size=(3, 1), stride=(1, 1), padding=same)
    (1): LeakyReLU(negative_slope=0.01)
    (2): MaxPool2d(kernel_size=(2, 1), stride=2, padding=0, dilation=1, ceil_mode=False)
  )
  (conv2): Sequential(
    (0): Conv2d(32, 64, kernel_size=(3, 1), stride=(1, 1), padding=same)
    (1): LeakyReLU(negative_slope=0.01)
    (2): MaxPool2d(kernel_size=(2, 1), stride=2, padding=0, dilation=1, ceil_mode=False)
  )
  (conv3): Sequential(
    (0): Conv2d(64, 128, kernel_size=(3, 1), stride=(1, 1), padding=same)
    (1): LeakyReLU(negative_slope=0.01)
    (2): MaxPool2d(kernel_size=(2, 1), stride=2, padding=0, dilation=1, ceil_mode=False)
  )
  (conv4): Sequential(
    (0): Conv2d(128, 256, kernel_size=(3, 1), stride=(1, 1), padding=same)
    (1): LeakyReLU(negative_slope=0.01)
    (2): MaxPool2d(kernel_size=(2, 1), stride=2, padding=0, dilation=1, ceil_mode=False)
  )
  (conv5): Sequential(
    (0): Conv2d(256, 512, kernel_size=(3, 1), stride=(1, 1), padding=same)
    (1): Tanh()
    (2): MaxPool2d(kernel_size=(2, 1), stride=2, padding=0, dilation=1, ceil_mode=False)
  )
  (drop): Dropout(p=0.1, inplace=False)
  (deconv1): Sequential(
    (0): ConvTranspose2d(512, 256, kernel_size=(2, 1), stride=(2, 2))
    (1): LeakyReLU(negative_slope=0.01)
  )
  (deconv2): Sequential(
    (0): ConvTranspose2d(256, 128, kernel_size=(2, 1), stride=(2, 2))
    (1): LeakyReLU(negative_slope=0.01)
  )
  (deconv3): Sequential(
    (0): ConvTranspose2d(128, 64, kernel_size=(2, 1), stride=(2, 2))
    (1): LeakyReLU(negative_slope=0.01)
  )
  (deconv4): Sequential(
    (0): ConvTranspose2d(64, 32, kernel_size=(2, 1), stride=(2, 2))
    (1): LeakyReLU(negative_slope=0.01)
  )
  (deconv5): Sequential(
    (0): ConvTranspose2d(32, 1, kernel_size=(2, 1), stride=(2, 2))
    (1): Tanh()
  )
)
MSELoss()
0.0001
150
Adam (
Parameter Group 0
    amsgrad: False
    betas: (0.9, 0.999)
    capturable: False
    eps: 1e-08
    foreach: None
    lr: 0.0001
    maximize: False
    weight_decay: 0
)
[… 2023-02-25 17:29:37.019937
CAE(
  (conv1): Sequential(
    (0): Conv2d(1, 32, kernel_size=(3, 1), stride=(1, 1), padding=same)
    (1): Tanh()
    (2): MaxPool2d(kernel_size=(2, 1), stride=2, padding=0, dilation=1, ceil_mode=False)
  )
  (conv2): Sequential(
    (0): Conv2d(32, 64, kernel_size=(3, 1), stride=(1, 1), padding=same)
    (1): Tanh()
    (2): MaxPool2d(kernel_size=(2, 1), stride=2, padding=0, dilation=1, ceil_mode=False)
  )
  (conv3): Sequential(
    (0): Conv2d(64, 128, kernel_size=(3, 1), stride=(1, 1), padding=same)
    (1): Tanh()
    (2): MaxPool2d(kernel_size=(2, 1), stride=2, padding=0, dilation=1, ceil_mode=False)
  )
  (conv4): Sequential(
    (0): Conv2d(128, 256, kernel_size=(3, 1), stride=(1, 1), padding=same)
    (1): Tanh()
    (2): MaxPool2d(kernel_size=(2, 1), stride=2, padding=0, dilation=1, ceil_mode=False)
  )
  (conv5): Sequential(
    (0): Conv2d(256, 512, kernel_size=(3, 1), stride=(1, 1), padding=same)
    (1): Tanh()
    (2): MaxPool2d(kernel_size=(2, 1), stride=2, padding=0, dilation=1, ceil_mode=False)
  )
  (drop): Dropout(p=0.1, inplace=False)
  (deconv1): Sequential(
    (0): ConvTranspose2d(512, 256, kernel_size=(2, 1), stride=(2, 2))
    (1): Tanh()
  )
  (deconv2): Sequential(
    (0): ConvTranspose2d(256, 128, kernel_size=(2, 1), stride=(2, 2))
    (1): Tanh()
  )
  (deconv3): Sequential(
    (0): ConvTranspose2d(128, 64, kernel_size=(2, 1), stride=(2, 2))
    (1): Tanh()
  )
  (deconv4): Sequential(
    (0): ConvTranspose2d(64, 32, kernel_size=(2, 1), stride=(2, 2))
    (1): Tanh()
  )
  (deconv5): Sequential(
    (0): ConvTranspose2d(32, 1, kernel_size=(2, 1), stride=(2, 2))
    (1): Tanh()
  )
)
MSELoss()
0.0001
150
Adam (
Parameter Group 0
    amsgrad: False
    betas: (0.9, 0.999)
    capturable: False
    eps: 1e-08
    foreach: None
    lr: 0.0001
    maximize: False
    weight_decay: 0
)
[… 2023-02-25 17:39:40.444283
CAE(
  (conv1): Sequential(
    (0): Conv2d(1, 32, kernel_size=(3, 1), stride=(1, 1), padding=same)
    (1): Tanh()
    (2): MaxPool2d(kernel_size=(2, 1), stride=2, padding=0, dilation=1, ceil_mode=False)
  )
  (conv2): Sequential(
    (0): Conv2d(32, 64, kernel_size=(3, 1), stride=(1, 1), padding=same)
    (1): Tanh()
    (2): MaxPool2d(kernel_size=(2, 1), stride=2, padding=0, dilation=1, ceil_mode=False)
  )
  (conv3): Sequential(
    (0): Conv2d(64, 128, kernel_size=(3, 1), stride=(1, 1), padding=same)
    (1): Tanh()
    (2): MaxPool2d(kernel_size=(2, 1), stride=2, padding=0, dilation=1, ceil_mode=False)
  )
  (conv4): Sequential(
    (0): Conv2d(128, 256, kernel_size=(3, 1), stride=(1, 1), padding=same)
    (1): Tanh()
    (2): MaxPool2d(kernel_size=(2, 1), stride=2, padding=0, dilation=1, ceil_mode=False)
  )
  (conv5): Sequential(
    (0): Conv2d(256, 512, kernel_size=(3, 1), stride=(1, 1), padding=same)
    (1): Tanh()
    (2): MaxPool2d(kernel_size=(2, 1), stride=2, padding=0, dilation=1, ceil_mode=False)
  )
  (drop): Dropout(p=0.1, inplace=False)
  (deconv1): Sequential(
    (0): ConvTranspose2d(512, 256, kernel_size=(2, 1), stride=(2, 2))
    (1): Tanh()
  )
  (deconv2): Sequential(
    (0): ConvTranspose2d(256, 128, kernel_size=(2, 1), stride=(2, 2))
    (1): Tanh()
  )
  (deconv3): Sequential(
    (0): ConvTranspose2d(128, 64, kernel_size=(2, 1), stride=(2, 2))
    (1): Tanh()
  )
  (deconv4): Sequential(
    (0): ConvTranspose2d(64, 32, kernel_size=(2, 1), stride=(2, 2))
    (1): Tanh()
  )
  (deconv5): Sequential(
    (0): ConvTranspose2d(32, 1, kernel_size=(2, 1), stride=(2, 2))
    (1): Tanh()
  )
)
MSELoss()
0.0001
100
Adam (
Parameter Group 0
    amsgrad: False
    betas: (0.9, 0.999)
    capturable: False
    eps: 1e-08
    foreach: None
    lr: 0.0001
    maximize: False
    weight_decay: 0
)
[… 2023-02-25 17:49:29.416780
CAE(
  (conv1): Sequential(
    (0): Conv2d(1, 32, kernel_size=(3, 1), stride=(1, 1), padding=same)
    (1): Tanh()
    (2): MaxPool2d(kernel_size=(2, 1), stride=2, padding=0, dilation=1, ceil_mode=False)
  )
  (conv2): Sequential(
    (0): Conv2d(32, 64, kernel_size=(3, 1), stride=(1, 1), padding=same)
    (1): Tanh()
    (2): MaxPool2d(kernel_size=(2, 1), stride=2, padding=0, dilation=1, ceil_mode=False)
  )
  (conv3): Sequential(
    (0): Conv2d(64, 128, kernel_size=(3, 1), stride=(1, 1), padding=same)
    (1): Tanh()
    (2): MaxPool2d(kernel_size=(2, 1), stride=2, padding=0, dilation=1, ceil_mode=False)
  )
  (conv4): Sequential(
    (0): Conv2d(128, 256, kernel_size=(3, 1), stride=(1, 1), padding=same)
    (1): Tanh()
    (2): MaxPool2d(kernel_size=(2, 1), stride=2, padding=0, dilation=1, ceil_mode=False)
  )
  (conv5): Sequential(
    (0): Conv2d(256, 512, kernel_size=(3, 1), stride=(1, 1), padding=same)
    (1): Tanh()
    (2): MaxPool2d(kernel_size=(2, 1), stride=2, padding=0, dilation=1, ceil_mode=False)
  )
  (drop): Dropout(p=0.1, inplace=False)
  (deconv1): Sequential(
    (0): ConvTranspose2d(512, 256, kernel_size=(2, 1), stride=(2, 2))
    (1): Tanh()
  )
  (deconv2): Sequential(
    (0): ConvTranspose2d(256, 128, kernel_size=(2, 1), stride=(2, 2))
    (1): Tanh()
  )
  (deconv3): Sequential(
    (0): ConvTranspose2d(128, 64, kernel_size=(2, 1), stride=(2, 2))
    (1): Tanh()
  )
  (deconv4): Sequential(
    (0): ConvTranspose2d(64, 32, kernel_size=(2, 1), stride=(2, 2))
    (1): Tanh()
  )
  (deconv5): Sequential(
    (0): ConvTranspose2d(32, 1, kernel_size=(2, 1), stride=(2, 2))
    (1): Tanh()
  )
)
MSELoss()
0.0001
100
Adam (
Parameter Group 0
    amsgrad: False
    betas: (0.9, 0.999)
    capturable: False
    eps: 1e-08
    foreach: None
    lr: 0.0001
    maximize: False
    weight_decay: 0
)
[… 2023-02-25 17:57:02.836258
CAE(
  (conv1): Sequential(
    (0): Conv2d(1, 32, kernel_size=(3, 1), stride=(1, 1), padding=same)
    (1): Tanh()
    (2): MaxPool2d(kernel_size=(2, 1), stride=2, padding=0, dilation=1, ceil_mode=False)
  )
  (conv2): Sequential(
    (0): Conv2d(32, 64, kernel_size=(3, 1), stride=(1, 1), padding=same)
    (1): Tanh()
    (2): MaxPool2d(kernel_size=(2, 1), stride=2, padding=0, dilation=1, ceil_mode=False)
  )
  (conv3): Sequential(
    (0): Conv2d(64, 128, kernel_size=(3, 1), stride=(1, 1), padding=same)
    (1): Tanh()
    (2): MaxPool2d(kernel_size=(2, 1), stride=2, padding=0, dilation=1, ceil_mode=False)
  )
  (drop): Dropout(p=0.1, inplace=False)
  (deconv3): Sequential(
    (0): ConvTranspose2d(128, 64, kernel_size=(2, 1), stride=(2, 2))
    (1): Tanh()
  )
  (deconv4): Sequential(
    (0): ConvTranspose2d(64, 32, kernel_size=(2, 1), stride=(2, 2))
    (1): Tanh()
  )
  (deconv5): Sequential(
    (0): ConvTranspose2d(32, 1, kernel_size=(2, 1), stride=(2, 2))
    (1): Tanh()
  )
)
MSELoss()
0.0001
100
Adam (
Parameter Group 0
    amsgrad: False
    betas: (0.9, 0.999)
    capturable: False
    eps: 1e-08
    foreach: None
    lr: 0.0001
    maximize: False
    weight_decay: 0
)
[… 2023-02-25 18:01:21.516562
CAE(
  (conv1): Sequential(
    (0): Conv2d(1, 32, kernel_size=(3, 1), stride=(1, 1), padding=same)
    (1): Tanh()
    (2): MaxPool2d(kernel_size=(2, 1), stride=2, padding=0, dilation=1, ceil_mode=False)
  )
  (conv2): Sequential(
    (0): Conv2d(32, 64, kernel_size=(3, 1), stride=(1, 1), padding=same)
    (1): Tanh()
    (2): MaxPool2d(kernel_size=(2, 1), stride=2, padding=0, dilation=1, ceil_mode=False)
  )
  (drop): Dropout(p=0.1, inplace=False)
  (deconv4): Sequential(
    (0): ConvTranspose2d(64, 32, kernel_size=(2, 1), stride=(2, 2))
    (1): Tanh()
  )
  (deconv5): Sequential(
    (0): ConvTranspose2d(32, 1, kernel_size=(2, 1), stride=(2, 2))
    (1): Tanh()
  )
)
MSELoss()
0.0001
100
Adam (
Parameter Group 0
    amsgrad: False
    betas: (0.9, 0.999)
    capturable: False
    eps: 1e-08
    foreach: None
    lr: 0.0001
    maximize: False
    weight_decay: 0
)
[… 2023-02-25 18:07:39.643008
CAE(
  (conv1): Sequential(
    (0): Conv2d(1, 32, kernel_size=(3, 1), stride=(1, 1), padding=same)
    (1): Tanh()
    (2): MaxPool2d(kernel_size=(2, 1), stride=2, padding=0, dilation=1, ceil_mode=False)
  )
  (conv2): Sequential(
    (0): Conv2d(32, 64, kernel_size=(3, 1), stride=(1, 1), padding=same)
    (1): Tanh()
    (2): MaxPool2d(kernel_size=(2, 1), stride=2, padding=0, dilation=1, ceil_mode=False)
  )
  (conv3): Sequential(
    (0): Conv2d(64, 128, kernel_size=(3, 1), stride=(1, 1), padding=same)
    (1): Tanh()
    (2): MaxPool2d(kernel_size=(2, 1), stride=2, padding=0, dilation=1, ceil_mode=False)
  )
  (drop): Dropout(p=0.1, inplace=False)
  (deconv3): Sequential(
    (0): ConvTranspose2d(128, 64, kernel_size=(2, 1), stride=(2, 2))
    (1): Tanh()
  )
  (deconv4): Sequential(
    (0): ConvTranspose2d(64, 32, kernel_size=(2, 1), stride=(2, 2))
    (1): Tanh()
  )
  (deconv5): Sequential(
    (0): ConvTranspose2d(32, 1, kernel_size=(2, 1), stride=(2, 2))
    (1): Tanh()
  )
)
MSELoss()
0.0001
100
Adam (
Parameter Group 0
    amsgrad: False
    betas: (0.9, 0.999)
    capturable: False
    eps: 1e-08
    foreach: None
    lr: 0.0001
    maximize: False
    weight_decay: 0
)
[… 2023-02-25 18:18:07.429961
CAE(
  (conv1): Sequential(
    (0): Conv2d(1, 32, kernel_size=(3, 1), stride=(1, 1), padding=same)
    (1): Tanh()
    (2): MaxPool2d(kernel_size=(2, 1), stride=2, padding=0, dilation=1, ceil_mode=False)
  )
  (conv2): Sequential(
    (0): Conv2d(32, 64, kernel_size=(3, 1), stride=(1, 1), padding=same)
    (1): Tanh()
    (2): MaxPool2d(kernel_size=(2, 1), stride=2, padding=0, dilation=1, ceil_mode=False)
  )
  (conv3): Sequential(
    (0): Conv2d(64, 128, kernel_size=(3, 1), stride=(1, 1), padding=same)
    (1): Tanh()
    (2): MaxPool2d(kernel_size=(2, 1), stride=2, padding=0, dilation=1, ceil_mode=False)
  )
  (conv4): Sequential(
    (0): Conv2d(128, 256, kernel_size=(3, 1), stride=(1, 1), padding=same)
    (1): Tanh()
    (2): MaxPool2d(kernel_size=(2, 1), stride=2, padding=0, dilation=1, ceil_mode=False)
  )
  (drop): Dropout(p=0.1, inplace=False)
  (deconv2): Sequential(
    (0): ConvTranspose2d(256, 128, kernel_size=(2, 1), stride=(2, 2))
    (1): Tanh()
  )
  (deconv3): Sequential(
    (0): ConvTranspose2d(128, 64, kernel_size=(2, 1), stride=(2, 2))
    (1): Tanh()
  )
  (deconv4): Sequential(
    (0): ConvTranspose2d(64, 32, kernel_size=(2, 1), stride=(2, 2))
    (1): Tanh()
  )
  (deconv5): Sequential(
    (0): ConvTranspose2d(32, 1, kernel_size=(2, 1), stride=(2, 2))
    (1): Tanh()
  )
)
MSELoss()
0.0001
100
Adam (
Parameter Group 0
    amsgrad: False
    betas: (0.9, 0.999)
    capturable: False
    eps: 1e-08
    foreach: None
    lr: 0.0001
    maximize: False
    weight_decay: 0
)
[… 2023-02-25 18:33:43.110061
CAE(
  (conv1): Sequential(
    (0): Conv2d(1, 32, kernel_size=(3, 1), stride=(1, 1), padding=same)
    (1): Tanh()
    (2): MaxPool2d(kernel_size=(2, 1), stride=2, padding=0, dilation=1, ceil_mode=False)
  )
  (conv2): Sequential(
    (0): Conv2d(32, 64, kernel_size=(3, 1), stride=(1, 1), padding=same)
    (1): Tanh()
    (2): MaxPool2d(kernel_size=(2, 1), stride=2, padding=0, dilation=1, ceil_mode=False)
  )
  (conv3): Sequential(
    (0): Conv2d(64, 128, kernel_size=(3, 1), stride=(1, 1), padding=same)
    (1): Tanh()
    (2): MaxPool2d(kernel_size=(2, 1), stride=2, padding=0, dilation=1, ceil_mode=False)
  )
  (conv4): Sequential(
    (0): Conv2d(128, 256, kernel_size=(3, 1), stride=(1, 1), padding=same)
    (1): Tanh()
    (2): MaxPool2d(kernel_size=(2, 1), stride=2, padding=0, dilation=1, ceil_mode=False)
  )
  (conv5): Sequential(
    (0): Conv2d(256, 512, kernel_size=(3, 1), stride=(1, 1), padding=same)
    (1): Tanh()
    (2): MaxPool2d(kernel_size=(2, 1), stride=2, padding=0, dilation=1, ceil_mode=False)
  )
  (drop): Dropout(p=0.1, inplace=False)
  (deconv1): Sequential(
    (0): ConvTranspose2d(512, 256, kernel_size=(2, 1), stride=(2, 2))
    (1): Tanh()
  )
  (deconv2): Sequential(
    (0): ConvTranspose2d(256, 128, kernel_size=(2, 1), stride=(2, 2))
    (1): Tanh()
  )
  (deconv3): Sequential(
    (0): ConvTranspose2d(128, 64, kernel_size=(2, 1), stride=(2, 2))
    (1): Tanh()
  )
  (deconv4): Sequential(
    (0): ConvTranspose2d(64, 32, kernel_size=(2, 1), stride=(2, 2))
    (1): Tanh()
  )
  (deconv5): Sequential(
    (0): ConvTranspose2d(32, 1, kernel_size=(2, 1), stride=(2, 2))
    (1): Tanh()
  )
)
MSELoss()
0.0001
100
Adam (
Parameter Group 0
    amsgrad: False
    betas: (0.9, 0.999)
    capturable: False
    eps: 1e-08
    foreach: None
    lr: 0.0001
    maximize: False
    weight_decay: 0
)
[… 2023-02-25 18:42:44.876833
CAE(
  (conv1): Sequential(
    (0): Conv2d(1, 32, kernel_size=(3, 1), stride=(1, 1), padding=same)
    (1): Tanh()
    (2): MaxPool2d(kernel_size=(2, 1), stride=2, padding=0, dilation=1, ceil_mode=False)
  )
  (conv2): Sequential(
    (0): Conv2d(32, 64, kernel_size=(3, 1), stride=(1, 1), padding=same)
    (1): Tanh()
    (2): MaxPool2d(kernel_size=(2, 1), stride=2, padding=0, dilation=1, ceil_mode=False)
  )
  (conv3): Sequential(
    (0): Conv2d(64, 128, kernel_size=(3, 1), stride=(1, 1), padding=same)
    (1): Tanh()
    (2): MaxPool2d(kernel_size=(2, 1), stride=2, padding=0, dilation=1, ceil_mode=False)
  )
  (conv4): Sequential(
    (0): Conv2d(128, 256, kernel_size=(3, 1), stride=(1, 1), padding=same)
    (1): Tanh()
    (2): MaxPool2d(kernel_size=(2, 1), stride=2, padding=0, dilation=1, ceil_mode=False)
  )
  (conv5): Sequential(
    (0): Conv2d(256, 512, kernel_size=(3, 1), stride=(1, 1), padding=same)
    (1): Tanh()
    (2): MaxPool2d(kernel_size=(2, 1), stride=2, padding=0, dilation=1, ceil_mode=False)
  )
  (drop): Dropout(p=0.1, inplace=False)
  (deconv1): Sequential(
    (0): ConvTranspose2d(512, 256, kernel_size=(2, 1), stride=(2, 2))
    (1): Tanh()
  )
  (deconv2): Sequential(
    (0): ConvTranspose2d(256, 128, kernel_size=(2, 1), stride=(2, 2))
    (1): Tanh()
  )
  (deconv3): Sequential(
    (0): ConvTranspose2d(128, 64, kernel_size=(2, 1), stride=(2, 2))
    (1): Tanh()
  )
  (deconv4): Sequential(
    (0): ConvTranspose2d(64, 32, kernel_size=(2, 1), stride=(2, 2))
    (1): Tanh()
  )
  (deconv5): Sequential(
    (0): ConvTranspose2d(32, 1, kernel_size=(2, 1), stride=(2, 2))
    (1): Tanh()
  )
)
MSELoss()
0.0001
100
Adam (
Parameter Group 0
    amsgrad: False
    betas: (0.9, 0.999)
    capturable: False
    eps: 1e-08
    foreach: None
    lr: 0.0001
    maximize: False
    weight_decay: 0
)
[… 2023-02-25 18:50:02.171079
CAE(
  (conv1): Sequential(
    (0): Conv2d(1, 32, kernel_size=(3, 1), stride=(1, 1), padding=same)
    (1): Tanh()
    (2): MaxPool2d(kernel_size=(2, 1), stride=2, padding=0, dilation=1, ceil_mode=False)
  )
  (conv2): Sequential(
    (0): Conv2d(32, 64, kernel_size=(3, 1), stride=(1, 1), padding=same)
    (1): Tanh()
    (2): MaxPool2d(kernel_size=(2, 1), stride=2, padding=0, dilation=1, ceil_mode=False)
  )
  (conv3): Sequential(
    (0): Conv2d(64, 128, kernel_size=(3, 1), stride=(1, 1), padding=same)
    (1): Tanh()
    (2): MaxPool2d(kernel_size=(2, 1), stride=2, padding=0, dilation=1, ceil_mode=False)
  )
  (conv4): Sequential(
    (0): Conv2d(128, 256, kernel_size=(3, 1), stride=(1, 1), padding=same)
    (1): Tanh()
    (2): MaxPool2d(kernel_size=(2, 1), stride=2, padding=0, dilation=1, ceil_mode=False)
  )
  (conv5): Sequential(
    (0): Conv2d(256, 512, kernel_size=(3, 1), stride=(1, 1), padding=same)
    (1): Tanh()
    (2): MaxPool2d(kernel_size=(2, 1), stride=2, padding=0, dilation=1, ceil_mode=False)
  )
  (drop): Dropout(p=0.1, inplace=False)
  (deconv1): Sequential(
    (0): ConvTranspose2d(512, 256, kernel_size=(2, 1), stride=(2, 2))
    (1): Tanh()
  )
  (deconv2): Sequential(
    (0): ConvTranspose2d(256, 128, kernel_size=(2, 1), stride=(2, 2))
    (1): Tanh()
  )
  (deconv3): Sequential(
    (0): ConvTranspose2d(128, 64, kernel_size=(2, 1), stride=(2, 2))
    (1): Tanh()
  )
  (deconv4): Sequential(
    (0): ConvTranspose2d(64, 32, kernel_size=(2, 1), stride=(2, 2))
    (1): Tanh()
  )
  (deconv5): Sequential(
    (0): ConvTranspose2d(32, 1, kernel_size=(2, 1), stride=(2, 2))
    (1): Tanh()
  )
)
MSELoss()
0.0001
100
Adam (
Parameter Group 0
    amsgrad: False
    betas: (0.9, 0.999)
    capturable: False
    eps: 1e-08
    foreach: None
    lr: 0.0001
    maximize: False
    weight_decay: 0
)
[… 2023-02-25 19:38:17.221777
CAE(
  (conv1): Sequential(
    (0): Conv2d(1, 32, kernel_size=(3, 1), stride=(1, 1), padding=same)
    (1): Tanh()
    (2): MaxPool2d(kernel_size=(2, 1), stride=2, padding=0, dilation=1, ceil_mode=False)
  )
  (conv2): Sequential(
    (0): Conv2d(32, 64, kernel_size=(3, 1), stride=(1, 1), padding=same)
    (1): Tanh()
    (2): MaxPool2d(kernel_size=(2, 1), stride=2, padding=0, dilation=1, ceil_mode=False)
  )
  (conv3): Sequential(
    (0): Conv2d(64, 128, kernel_size=(3, 1), stride=(1, 1), padding=same)
    (1): Tanh()
    (2): MaxPool2d(kernel_size=(2, 1), stride=2, padding=0, dilation=1, ceil_mode=False)
  )
  (conv4): Sequential(
    (0): Conv2d(128, 256, kernel_size=(3, 1), stride=(1, 1), padding=same)
    (1): Tanh()
    (2): MaxPool2d(kernel_size=(2, 1), stride=2, padding=0, dilation=1, ceil_mode=False)
  )
  (conv5): Sequential(
    (0): Conv2d(256, 512, kernel_size=(3, 1), stride=(1, 1), padding=same)
    (1): Tanh()
    (2): MaxPool2d(kernel_size=(2, 1), stride=2, padding=0, dilation=1, ceil_mode=False)
  )
  (drop): Dropout(p=0.1, inplace=False)
  (deconv1): Sequential(
    (0): ConvTranspose2d(512, 256, kernel_size=(2, 1), stride=(2, 2))
    (1): Tanh()
  )
  (deconv2): Sequential(
    (0): ConvTranspose2d(256, 128, kernel_size=(2, 1), stride=(2, 2))
    (1): Tanh()
  )
  (deconv3): Sequential(
    (0): ConvTranspose2d(128, 64, kernel_size=(2, 1), stride=(2, 2))
    (1): Tanh()
  )
  (deconv4): Sequential(
    (0): ConvTranspose2d(64, 32, kernel_size=(2, 1), stride=(2, 2))
    (1): Tanh()
  )
  (deconv5): Sequential(
    (0): ConvTranspose2d(32, 1, kernel_size=(2, 1), stride=(2, 2))
    (1): Tanh()
  )
)
MSELoss()
0.0001
100
Adam (
Parameter Group 0
    amsgrad: False
    betas: (0.9, 0.999)
    capturable: False
    eps: 1e-08
    foreach: None
    lr: 0.0001
    maximize: False
    weight_decay: 0
)
[… 2023-02-25 19:52:09.120149
CAE(
  (conv1): Sequential(
    (0): Conv2d(1, 32, kernel_size=(3, 1), stride=(1, 1), padding=same)
    (1): Tanh()
    (2): MaxPool2d(kernel_size=(2, 1), stride=2, padding=0, dilation=1, ceil_mode=False)
  )
  (conv2): Sequential(
    (0): Conv2d(32, 64, kernel_size=(3, 1), stride=(1, 1), padding=same)
    (1): Tanh()
    (2): MaxPool2d(kernel_size=(2, 1), stride=2, padding=0, dilation=1, ceil_mode=False)
  )
  (conv3): Sequential(
    (0): Conv2d(64, 128, kernel_size=(3, 1), stride=(1, 1), padding=same)
    (1): Tanh()
    (2): MaxPool2d(kernel_size=(2, 1), stride=2, padding=0, dilation=1, ceil_mode=False)
  )
  (conv4): Sequential(
    (0): Conv2d(128, 256, kernel_size=(3, 1), stride=(1, 1), padding=same)
    (1): Tanh()
    (2): MaxPool2d(kernel_size=(2, 1), stride=2, padding=0, dilation=1, ceil_mode=False)
  )
  (conv5): Sequential(
    (0): Conv2d(256, 512, kernel_size=(3, 1), stride=(1, 1), padding=same)
    (1): Tanh()
    (2): MaxPool2d(kernel_size=(2, 1), stride=2, padding=0, dilation=1, ceil_mode=False)
  )
  (drop): Dropout(p=0.1, inplace=False)
  (deconv1): Sequential(
    (0): ConvTranspose2d(512, 256, kernel_size=(2, 1), stride=(2, 2))
    (1): Tanh()
  )
  (deconv2): Sequential(
    (0): ConvTranspose2d(256, 128, kernel_size=(2, 1), stride=(2, 2))
    (1): Tanh()
  )
  (deconv3): Sequential(
    (0): ConvTranspose2d(128, 64, kernel_size=(2, 1), stride=(2, 2))
    (1): Tanh()
  )
  (deconv4): Sequential(
    (0): ConvTranspose2d(64, 32, kernel_size=(2, 1), stride=(2, 2))
    (1): Tanh()
  )
  (deconv5): Sequential(
    (0): ConvTranspose2d(32, 1, kernel_size=(2, 1), stride=(2, 2))
    (1): Tanh()
  )
)
MSELoss()
0.0001
100
Adam (
Parameter Group 0
    amsgrad: False
    betas: (0.9, 0.999)
    capturable: False
    eps: 1e-08
    foreach: None
    lr: 0.0001
    maximize: False
    weight_decay: 0
)
[… 2023-02-25 20:02:54.583380
CAE(
  (conv1): Sequential(
    (0): Conv2d(1, 32, kernel_size=(3, 1), stride=(1, 1), padding=same)
    (1): Tanh()
    (2): MaxPool2d(kernel_size=(2, 1), stride=2, padding=0, dilation=1, ceil_mode=False)
  )
  (conv2): Sequential(
    (0): Conv2d(32, 64, kernel_size=(3, 1), stride=(1, 1), padding=same)
    (1): Tanh()
    (2): MaxPool2d(kernel_size=(2, 1), stride=2, padding=0, dilation=1, ceil_mode=False)
  )
  (conv3): Sequential(
    (0): Conv2d(64, 128, kernel_size=(3, 1), stride=(1, 1), padding=same)
    (1): Tanh()
    (2): MaxPool2d(kernel_size=(2, 1), stride=2, padding=0, dilation=1, ceil_mode=False)
  )
  (conv4): Sequential(
    (0): Conv2d(128, 256, kernel_size=(3, 1), stride=(1, 1), padding=same)
    (1): Tanh()
    (2): MaxPool2d(kernel_size=(2, 1), stride=2, padding=0, dilation=1, ceil_mode=False)
  )
  (conv5): Sequential(
    (0): Conv2d(256, 512, kernel_size=(3, 1), stride=(1, 1), padding=same)
    (1): Tanh()
    (2): MaxPool2d(kernel_size=(2, 1), stride=2, padding=0, dilation=1, ceil_mode=False)
  )
  (drop): Dropout(p=0.1, inplace=False)
  (deconv1): Sequential(
    (0): ConvTranspose2d(512, 256, kernel_size=(2, 1), stride=(2, 2))
    (1): Tanh()
  )
  (deconv2): Sequential(
    (0): ConvTranspose2d(256, 128, kernel_size=(2, 1), stride=(2, 2))
    (1): Tanh()
  )
  (deconv3): Sequential(
    (0): ConvTranspose2d(128, 64, kernel_size=(2, 1), stride=(2, 2))
    (1): Tanh()
  )
  (deconv4): Sequential(
    (0): ConvTranspose2d(64, 32, kernel_size=(2, 1), stride=(2, 2))
    (1): Tanh()
  )
  (deconv5): Sequential(
    (0): ConvTranspose2d(32, 1, kernel_size=(2, 1), stride=(2, 2))
    (1): Tanh()
  )
)
MSELoss()
0.0001
100
Adam (
Parameter Group 0
    amsgrad: False
    betas: (0.9, 0.999)
    capturable: False
    eps: 1e-08
    foreach: None
    lr: 0.0001
    maximize: False
    weight_decay: 0
)
[… 2023-02-25 20:12:37.204202
CAE(
  (conv1): Sequential(
    (0): Conv2d(1, 32, kernel_size=(3, 1), stride=(1, 1), padding=same)
    (1): Tanh()
    (2): MaxPool2d(kernel_size=(2, 1), stride=2, padding=0, dilation=1, ceil_mode=False)
  )
  (conv2): Sequential(
    (0): Conv2d(32, 64, kernel_size=(3, 1), stride=(1, 1), padding=same)
    (1): Tanh()
    (2): MaxPool2d(kernel_size=(2, 1), stride=2, padding=0, dilation=1, ceil_mode=False)
  )
  (conv3): Sequential(
    (0): Conv2d(64, 128, kernel_size=(3, 1), stride=(1, 1), padding=same)
    (1): Tanh()
    (2): MaxPool2d(kernel_size=(2, 1), stride=2, padding=0, dilation=1, ceil_mode=False)
  )
  (conv4): Sequential(
    (0): Conv2d(128, 256, kernel_size=(3, 1), stride=(1, 1), padding=same)
    (1): Tanh()
    (2): MaxPool2d(kernel_size=(2, 1), stride=2, padding=0, dilation=1, ceil_mode=False)
  )
  (conv5): Sequential(
    (0): Conv2d(256, 512, kernel_size=(3, 1), stride=(1, 1), padding=same)
    (1): Tanh()
    (2): MaxPool2d(kernel_size=(2, 1), stride=2, padding=0, dilation=1, ceil_mode=False)
  )
  (drop): Dropout(p=0.1, inplace=False)
  (deconv1): Sequential(
    (0): ConvTranspose2d(512, 256, kernel_size=(2, 1), stride=(2, 2))
    (1): Tanh()
  )
  (deconv2): Sequential(
    (0): ConvTranspose2d(256, 128, kernel_size=(2, 1), stride=(2, 2))
    (1): Tanh()
  )
  (deconv3): Sequential(
    (0): ConvTranspose2d(128, 64, kernel_size=(2, 1), stride=(2, 2))
    (1): Tanh()
  )
  (deconv4): Sequential(
    (0): ConvTranspose2d(64, 32, kernel_size=(2, 1), stride=(2, 2))
    (1): Tanh()
  )
  (deconv5): Sequential(
    (0): ConvTranspose2d(32, 1, kernel_size=(2, 1), stride=(2, 2))
    (1): Tanh()
  )
)
MSELoss()
0.0001
100
Adam (
Parameter Group 0
    amsgrad: False
    betas: (0.9, 0.999)
    capturable: False
    eps: 1e-08
    foreach: None
    lr: 0.0001
    maximize: False
    weight_decay: 0
)
[… 2023-02-25 20:21:02.648132
CAE(
  (conv1): Sequential(
    (0): Conv2d(1, 32, kernel_size=(3, 1), stride=(1, 1), padding=same)
    (1): Tanh()
    (2): MaxPool2d(kernel_size=(2, 1), stride=2, padding=0, dilation=1, ceil_mode=False)
  )
  (conv2): Sequential(
    (0): Conv2d(32, 64, kernel_size=(3, 1), stride=(1, 1), padding=same)
    (1): Tanh()
    (2): MaxPool2d(kernel_size=(2, 1), stride=2, padding=0, dilation=1, ceil_mode=False)
  )
  (conv3): Sequential(
    (0): Conv2d(64, 128, kernel_size=(3, 1), stride=(1, 1), padding=same)
    (1): Tanh()
    (2): MaxPool2d(kernel_size=(2, 1), stride=2, padding=0, dilation=1, ceil_mode=False)
  )
  (conv4): Sequential(
    (0): Conv2d(128, 256, kernel_size=(3, 1), stride=(1, 1), padding=same)
    (1): Tanh()
    (2): MaxPool2d(kernel_size=(2, 1), stride=2, padding=0, dilation=1, ceil_mode=False)
  )
  (conv5): Sequential(
    (0): Conv2d(256, 512, kernel_size=(3, 1), stride=(1, 1), padding=same)
    (1): Tanh()
    (2): MaxPool2d(kernel_size=(2, 1), stride=2, padding=0, dilation=1, ceil_mode=False)
  )
  (drop): Dropout(p=0.1, inplace=False)
  (deconv1): Sequential(
    (0): ConvTranspose2d(512, 256, kernel_size=(2, 1), stride=(2, 2))
    (1): Tanh()
  )
  (deconv2): Sequential(
    (0): ConvTranspose2d(256, 128, kernel_size=(2, 1), stride=(2, 2))
    (1): Tanh()
  )
  (deconv3): Sequential(
    (0): ConvTranspose2d(128, 64, kernel_size=(2, 1), stride=(2, 2))
    (1): Tanh()
  )
  (deconv4): Sequential(
    (0): ConvTranspose2d(64, 32, kernel_size=(2, 1), stride=(2, 2))
    (1): Tanh()
  )
  (deconv5): Sequential(
    (0): ConvTranspose2d(32, 1, kernel_size=(2, 1), stride=(2, 2))
    (1): Tanh()
  )
)
MSELoss()
0.0001
100
Adam (
Parameter Group 0
    amsgrad: False
    betas: (0.9, 0.999)
    capturable: False
    eps: 1e-08
    foreach: None
    lr: 0.0001
    maximize: False
    weight_decay: 0
)
[… 2023-02-25 20:29:30.220415
CAE(
  (conv1): Sequential(
    (0): Conv2d(1, 32, kernel_size=(3, 1), stride=(1, 1), padding=same)
    (1): Tanh()
    (2): MaxPool2d(kernel_size=(2, 1), stride=2, padding=0, dilation=1, ceil_mode=False)
  )
  (conv2): Sequential(
    (0): Conv2d(32, 64, kernel_size=(3, 1), stride=(1, 1), padding=same)
    (1): Tanh()
    (2): MaxPool2d(kernel_size=(2, 1), stride=2, padding=0, dilation=1, ceil_mode=False)
  )
  (conv3): Sequential(
    (0): Conv2d(64, 128, kernel_size=(3, 1), stride=(1, 1), padding=same)
    (1): Tanh()
    (2): MaxPool2d(kernel_size=(2, 1), stride=2, padding=0, dilation=1, ceil_mode=False)
  )
  (conv4): Sequential(
    (0): Conv2d(128, 256, kernel_size=(3, 1), stride=(1, 1), padding=same)
    (1): Tanh()
    (2): MaxPool2d(kernel_size=(2, 1), stride=2, padding=0, dilation=1, ceil_mode=False)
  )
  (conv5): Sequential(
    (0): Conv2d(256, 512, kernel_size=(3, 1), stride=(1, 1), padding=same)
    (1): Tanh()
    (2): MaxPool2d(kernel_size=(2, 1), stride=2, padding=0, dilation=1, ceil_mode=False)
  )
  (drop): Dropout(p=0.1, inplace=False)
  (deconv1): Sequential(
    (0): ConvTranspose2d(512, 256, kernel_size=(2, 1), stride=(2, 2))
    (1): Tanh()
  )
  (deconv2): Sequential(
    (0): ConvTranspose2d(256, 128, kernel_size=(2, 1), stride=(2, 2))
    (1): Tanh()
  )
  (deconv3): Sequential(
    (0): ConvTranspose2d(128, 64, kernel_size=(2, 1), stride=(2, 2))
    (1): Tanh()
  )
  (deconv4): Sequential(
    (0): ConvTranspose2d(64, 32, kernel_size=(2, 1), stride=(2, 2))
    (1): Tanh()
  )
  (deconv5): Sequential(
    (0): ConvTranspose2d(32, 1, kernel_size=(2, 1), stride=(2, 2))
    (1): Tanh()
  )
)
MSELoss()
0.0001
100
Adam (
Parameter Group 0
    amsgrad: False
    betas: (0.9, 0.999)
    capturable: False
    eps: 1e-08
    foreach: None
    lr: 0.0001
    maximize: False
    weight_decay: 0
)
[… 2023-02-25 20:38:22.804317
CAE(
  (conv1): Sequential(
    (0): Conv2d(1, 32, kernel_size=(3, 1), stride=(1, 1), padding=same)
    (1): Tanh()
    (2): MaxPool2d(kernel_size=(2, 1), stride=2, padding=0, dilation=1, ceil_mode=False)
  )
  (conv2): Sequential(
    (0): Conv2d(32, 64, kernel_size=(3, 1), stride=(1, 1), padding=same)
    (1): Tanh()
    (2): MaxPool2d(kernel_size=(2, 1), stride=2, padding=0, dilation=1, ceil_mode=False)
  )
  (conv3): Sequential(
    (0): Conv2d(64, 128, kernel_size=(3, 1), stride=(1, 1), padding=same)
    (1): Tanh()
    (2): MaxPool2d(kernel_size=(2, 1), stride=2, padding=0, dilation=1, ceil_mode=False)
  )
  (conv4): Sequential(
    (0): Conv2d(128, 256, kernel_size=(3, 1), stride=(1, 1), padding=same)
    (1): Tanh()
    (2): MaxPool2d(kernel_size=(2, 1), stride=2, padding=0, dilation=1, ceil_mode=False)
  )
  (conv5): Sequential(
    (0): Conv2d(256, 512, kernel_size=(3, 1), stride=(1, 1), padding=same)
    (1): Tanh()
    (2): MaxPool2d(kernel_size=(2, 1), stride=2, padding=0, dilation=1, ceil_mode=False)
  )
  (drop): Dropout(p=0.1, inplace=False)
  (deconv1): Sequential(
    (0): ConvTranspose2d(512, 256, kernel_size=(2, 1), stride=(2, 2))
    (1): Tanh()
  )
  (deconv2): Sequential(
    (0): ConvTranspose2d(256, 128, kernel_size=(2, 1), stride=(2, 2))
    (1): Tanh()
  )
  (deconv3): Sequential(
    (0): ConvTranspose2d(128, 64, kernel_size=(2, 1), stride=(2, 2))
    (1): Tanh()
  )
  (deconv4): Sequential(
    (0): ConvTranspose2d(64, 32, kernel_size=(2, 1), stride=(2, 2))
    (1): Tanh()
  )
  (deconv5): Sequential(
    (0): ConvTranspose2d(32, 1, kernel_size=(2, 1), stride=(2, 2))
    (1): Tanh()
  )
)
MSELoss()
0.0001
100
Adam (
Parameter Group 0
    amsgrad: False
    betas: (0.9, 0.999)
    capturable: False
    eps: 1e-08
    foreach: None
    lr: 0.0001
    maximize: False
    weight_decay: 0
)
[… 2023-02-26 10:44:27.483349
CAE(
  (conv1): Sequential(
    (0): Conv2d(1, 32, kernel_size=(3, 1), stride=(1, 1), padding=same)
    (1): Tanh()
    (2): MaxPool2d(kernel_size=(2, 1), stride=2, padding=0, dilation=1, ceil_mode=False)
  )
  (conv2): Sequential(
    (0): Conv2d(32, 64, kernel_size=(3, 1), stride=(1, 1), padding=same)
    (1): Tanh()
    (2): MaxPool2d(kernel_size=(2, 1), stride=2, padding=0, dilation=1, ceil_mode=False)
  )
  (conv3): Sequential(
    (0): Conv2d(64, 128, kernel_size=(3, 1), stride=(1, 1), padding=same)
    (1): Tanh()
    (2): MaxPool2d(kernel_size=(2, 1), stride=2, padding=0, dilation=1, ceil_mode=False)
  )
  (conv4): Sequential(
    (0): Conv2d(128, 256, kernel_size=(3, 1), stride=(1, 1), padding=same)
    (1): Tanh()
    (2): MaxPool2d(kernel_size=(2, 1), stride=2, padding=0, dilation=1, ceil_mode=False)
  )
  (conv5): Sequential(
    (0): Conv2d(256, 512, kernel_size=(3, 1), stride=(1, 1), padding=same)
    (1): Tanh()
    (2): MaxPool2d(kernel_size=(2, 1), stride=2, padding=0, dilation=1, ceil_mode=False)
  )
  (drop): Dropout(p=0.1, inplace=False)
  (deconv1): Sequential(
    (0): ConvTranspose2d(512, 256, kernel_size=(2, 1), stride=(2, 2))
    (1): Tanh()
  )
  (deconv2): Sequential(
    (0): ConvTranspose2d(256, 128, kernel_size=(2, 1), stride=(2, 2))
    (1): Tanh()
  )
  (deconv3): Sequential(
    (0): ConvTranspose2d(128, 64, kernel_size=(2, 1), stride=(2, 2))
    (1): Tanh()
  )
  (deconv4): Sequential(
    (0): ConvTranspose2d(64, 32, kernel_size=(2, 1), stride=(2, 2))
    (1): Tanh()
  )
  (deconv5): Sequential(
    (0): ConvTranspose2d(32, 1, kernel_size=(2, 1), stride=(2, 2))
    (1): Tanh()
  )
)
MSELoss()
0.0001
100
Adam (
Parameter Group 0
    amsgrad: False
    betas: (0.9, 0.999)
    capturable: False
    eps: 1e-08
    foreach: None
    lr: 0.0001
    maximize: False
    weight_decay: 0
)
[… 2023-02-26 10:56:47.180850
CAE(
  (conv1): Sequential(
    (0): Conv2d(1, 32, kernel_size=(3, 1), stride=(1, 1), padding=same)
    (1): Tanh()
    (2): MaxPool2d(kernel_size=(2, 1), stride=2, padding=0, dilation=1, ceil_mode=False)
  )
  (conv2): Sequential(
    (0): Conv2d(32, 64, kernel_size=(3, 1), stride=(1, 1), padding=same)
    (1): Tanh()
    (2): MaxPool2d(kernel_size=(2, 1), stride=2, padding=0, dilation=1, ceil_mode=False)
  )
  (conv3): Sequential(
    (0): Conv2d(64, 128, kernel_size=(3, 1), stride=(1, 1), padding=same)
    (1): Tanh()
    (2): MaxPool2d(kernel_size=(2, 1), stride=2, padding=0, dilation=1, ceil_mode=False)
  )
  (conv4): Sequential(
    (0): Conv2d(128, 256, kernel_size=(3, 1), stride=(1, 1), padding=same)
    (1): Tanh()
    (2): MaxPool2d(kernel_size=(2, 1), stride=2, padding=0, dilation=1, ceil_mode=False)
  )
  (conv5): Sequential(
    (0): Conv2d(256, 512, kernel_size=(3, 1), stride=(1, 1), padding=same)
    (1): Tanh()
    (2): MaxPool2d(kernel_size=(2, 1), stride=2, padding=0, dilation=1, ceil_mode=False)
  )
  (drop): Dropout(p=0.1, inplace=False)
  (deconv1): Sequential(
    (0): ConvTranspose2d(512, 256, kernel_size=(2, 1), stride=(2, 2))
    (1): Tanh()
  )
  (deconv2): Sequential(
    (0): ConvTranspose2d(256, 128, kernel_size=(2, 1), stride=(2, 2))
    (1): Tanh()
  )
  (deconv3): Sequential(
    (0): ConvTranspose2d(128, 64, kernel_size=(2, 1), stride=(2, 2))
    (1): Tanh()
  )
  (deconv4): Sequential(
    (0): ConvTranspose2d(64, 32, kernel_size=(2, 1), stride=(2, 2))
    (1): Tanh()
  )
  (deconv5): Sequential(
    (0): ConvTranspose2d(32, 1, kernel_size=(2, 1), stride=(2, 2))
    (1): Tanh()
  )
)
MSELoss()
0.0001
100
Adam (
Parameter Group 0
    amsgrad: False
    betas: (0.9, 0.999)
    capturable: False
    eps: 1e-08
    foreach: None
    lr: 0.0001
    maximize: False
    weight_decay: 0
)
[… 2023-02-26 11:06:40.892919
CAE(
  (conv1): Sequential(
    (0): Conv2d(1, 32, kernel_size=(3, 1), stride=(1, 1), padding=same)
    (1): Tanh()
    (2): MaxPool2d(kernel_size=(2, 1), stride=2, padding=0, dilation=1, ceil_mode=False)
  )
  (conv2): Sequential(
    (0): Conv2d(32, 64, kernel_size=(3, 1), stride=(1, 1), padding=same)
    (1): Tanh()
    (2): MaxPool2d(kernel_size=(2, 1), stride=2, padding=0, dilation=1, ceil_mode=False)
  )
  (conv3): Sequential(
    (0): Conv2d(64, 128, kernel_size=(3, 1), stride=(1, 1), padding=same)
    (1): Tanh()
    (2): MaxPool2d(kernel_size=(2, 1), stride=2, padding=0, dilation=1, ceil_mode=False)
  )
  (conv4): Sequential(
    (0): Conv2d(128, 256, kernel_size=(3, 1), stride=(1, 1), padding=same)
    (1): Tanh()
    (2): MaxPool2d(kernel_size=(2, 1), stride=2, padding=0, dilation=1, ceil_mode=False)
  )
  (conv5): Sequential(
    (0): Conv2d(256, 512, kernel_size=(3, 1), stride=(1, 1), padding=same)
    (1): Tanh()
    (2): MaxPool2d(kernel_size=(2, 1), stride=2, padding=0, dilation=1, ceil_mode=False)
  )
  (drop): Dropout(p=0.1, inplace=False)
  (deconv1): Sequential(
    (0): ConvTranspose2d(512, 256, kernel_size=(2, 1), stride=(2, 2))
    (1): Tanh()
  )
  (deconv2): Sequential(
    (0): ConvTranspose2d(256, 128, kernel_size=(2, 1), stride=(2, 2))
    (1): Tanh()
  )
  (deconv3): Sequential(
    (0): ConvTranspose2d(128, 64, kernel_size=(2, 1), stride=(2, 2))
    (1): Tanh()
  )
  (deconv4): Sequential(
    (0): ConvTranspose2d(64, 32, kernel_size=(2, 1), stride=(2, 2))
    (1): Tanh()
  )
  (deconv5): Sequential(
    (0): ConvTranspose2d(32, 1, kernel_size=(2, 1), stride=(2, 2))
    (1): Tanh()
  )
)
MSELoss()
0.0001
100
Adam (
Parameter Group 0
    amsgrad: False
    betas: (0.9, 0.999)
    capturable: False
    eps: 1e-08
    foreach: None
    lr: 0.0001
    maximize: False
    weight_decay: 0
)
[… 2023-02-26 11:15:13.667728
CAE(
  (conv1): Sequential(
    (0): Conv2d(1, 32, kernel_size=(3, 1), stride=(1, 1), padding=same)
    (1): Tanh()
    (2): MaxPool2d(kernel_size=(2, 1), stride=2, padding=0, dilation=1, ceil_mode=False)
  )
  (conv2): Sequential(
    (0): Conv2d(32, 64, kernel_size=(3, 1), stride=(1, 1), padding=same)
    (1): Tanh()
    (2): MaxPool2d(kernel_size=(2, 1), stride=2, padding=0, dilation=1, ceil_mode=False)
  )
  (conv3): Sequential(
    (0): Conv2d(64, 128, kernel_size=(3, 1), stride=(1, 1), padding=same)
    (1): Tanh()
    (2): MaxPool2d(kernel_size=(2, 1), stride=2, padding=0, dilation=1, ceil_mode=False)
  )
  (conv4): Sequential(
    (0): Conv2d(128, 256, kernel_size=(3, 1), stride=(1, 1), padding=same)
    (1): Tanh()
    (2): MaxPool2d(kernel_size=(2, 1), stride=2, padding=0, dilation=1, ceil_mode=False)
  )
  (conv5): Sequential(
    (0): Conv2d(256, 512, kernel_size=(3, 1), stride=(1, 1), padding=same)
    (1): Tanh()
    (2): MaxPool2d(kernel_size=(2, 1), stride=2, padding=0, dilation=1, ceil_mode=False)
  )
  (drop): Dropout(p=0.1, inplace=False)
  (deconv1): Sequential(
    (0): ConvTranspose2d(512, 256, kernel_size=(2, 1), stride=(2, 2))
    (1): Tanh()
  )
  (deconv2): Sequential(
    (0): ConvTranspose2d(256, 128, kernel_size=(2, 1), stride=(2, 2))
    (1): Tanh()
  )
  (deconv3): Sequential(
    (0): ConvTranspose2d(128, 64, kernel_size=(2, 1), stride=(2, 2))
    (1): Tanh()
  )
  (deconv4): Sequential(
    (0): ConvTranspose2d(64, 32, kernel_size=(2, 1), stride=(2, 2))
    (1): Tanh()
  )
  (deconv5): Sequential(
    (0): ConvTranspose2d(32, 1, kernel_size=(2, 1), stride=(2, 2))
    (1): Tanh()
  )
)
MSELoss()
0.0001
100
Adam (
Parameter Group 0
    amsgrad: False
    betas: (0.9, 0.999)
    capturable: False
    eps: 1e-08
    foreach: None
    lr: 0.0001
    maximize: False
    weight_decay: 0
)
[… 2023-02-26 11:26:55.993416
CAE(
  (conv1): Sequential(
    (0): Conv2d(1, 32, kernel_size=(3, 1), stride=(1, 1), padding=same)
    (1): Tanh()
    (2): MaxPool2d(kernel_size=(2, 1), stride=2, padding=0, dilation=1, ceil_mode=False)
  )
  (conv2): Sequential(
    (0): Conv2d(32, 64, kernel_size=(3, 1), stride=(1, 1), padding=same)
    (1): Tanh()
    (2): MaxPool2d(kernel_size=(2, 1), stride=2, padding=0, dilation=1, ceil_mode=False)
  )
  (conv3): Sequential(
    (0): Conv2d(64, 128, kernel_size=(3, 1), stride=(1, 1), padding=same)
    (1): Tanh()
    (2): MaxPool2d(kernel_size=(2, 1), stride=2, padding=0, dilation=1, ceil_mode=False)
  )
  (conv4): Sequential(
    (0): Conv2d(128, 256, kernel_size=(3, 1), stride=(1, 1), padding=same)
    (1): Tanh()
    (2): MaxPool2d(kernel_size=(2, 1), stride=2, padding=0, dilation=1, ceil_mode=False)
  )
  (conv5): Sequential(
    (0): Conv2d(256, 512, kernel_size=(3, 1), stride=(1, 1), padding=same)
    (1): Tanh()
    (2): MaxPool2d(kernel_size=(2, 1), stride=2, padding=0, dilation=1, ceil_mode=False)
  )
  (drop): Dropout(p=0.1, inplace=False)
  (deconv1): Sequential(
    (0): ConvTranspose2d(512, 256, kernel_size=(2, 1), stride=(2, 2))
    (1): Tanh()
  )
  (deconv2): Sequential(
    (0): ConvTranspose2d(256, 128, kernel_size=(2, 1), stride=(2, 2))
    (1): Tanh()
  )
  (deconv3): Sequential(
    (0): ConvTranspose2d(128, 64, kernel_size=(2, 1), stride=(2, 2))
    (1): Tanh()
  )
  (deconv4): Sequential(
    (0): ConvTranspose2d(64, 32, kernel_size=(2, 1), stride=(2, 2))
    (1): Tanh()
  )
  (deconv5): Sequential(
    (0): ConvTranspose2d(32, 1, kernel_size=(2, 1), stride=(2, 2))
    (1): Tanh()
  )
)
MSELoss()
0.0001
100
Adam (
Parameter Group 0
    amsgrad: False
    betas: (0.9, 0.999)
    capturable: False
    eps: 1e-08
    foreach: None
    lr: 0.0001
    maximize: False
    weight_decay: 0
)
[… 2023-02-26 11:44:23.395321
CAE(
  (conv1): Sequential(
    (0): Conv2d(1, 32, kernel_size=(3, 1), stride=(1, 1), padding=same)
    (1): Tanh()
    (2): MaxPool2d(kernel_size=(2, 1), stride=2, padding=0, dilation=1, ceil_mode=False)
  )
  (conv2): Sequential(
    (0): Conv2d(32, 64, kernel_size=(3, 1), stride=(1, 1), padding=same)
    (1): Tanh()
    (2): MaxPool2d(kernel_size=(2, 1), stride=2, padding=0, dilation=1, ceil_mode=False)
  )
  (conv3): Sequential(
    (0): Conv2d(64, 128, kernel_size=(3, 1), stride=(1, 1), padding=same)
    (1): Tanh()
    (2): MaxPool2d(kernel_size=(2, 1), stride=2, padding=0, dilation=1, ceil_mode=False)
  )
  (conv4): Sequential(
    (0): Conv2d(128, 256, kernel_size=(3, 1), stride=(1, 1), padding=same)
    (1): Tanh()
    (2): MaxPool2d(kernel_size=(2, 1), stride=2, padding=0, dilation=1, ceil_mode=False)
  )
  (conv5): Sequential(
    (0): Conv2d(256, 512, kernel_size=(3, 1), stride=(1, 1), padding=same)
    (1): Tanh()
    (2): MaxPool2d(kernel_size=(2, 1), stride=2, padding=0, dilation=1, ceil_mode=False)
  )
  (drop): Dropout(p=0.1, inplace=False)
  (deconv1): Sequential(
    (0): ConvTranspose2d(512, 256, kernel_size=(2, 1), stride=(2, 2))
    (1): Tanh()
  )
  (deconv2): Sequential(
    (0): ConvTranspose2d(256, 128, kernel_size=(2, 1), stride=(2, 2))
    (1): Tanh()
  )
  (deconv3): Sequential(
    (0): ConvTranspose2d(128, 64, kernel_size=(2, 1), stride=(2, 2))
    (1): Tanh()
  )
  (deconv4): Sequential(
    (0): ConvTranspose2d(64, 32, kernel_size=(2, 1), stride=(2, 2))
    (1): Tanh()
  )
  (deconv5): Sequential(
    (0): ConvTranspose2d(32, 1, kernel_size=(2, 1), stride=(2, 2))
    (1): Tanh()
  )
)
MSELoss()
0.0001
100
Adam (
Parameter Group 0
    amsgrad: False
    betas: (0.9, 0.999)
    capturable: False
    eps: 1e-08
    foreach: None
    lr: 0.0001
    maximize: False
    weight_decay: 0
)
[… 2023-02-26 11:52:01.644039
CAE(
  (conv1): Sequential(
    (0): Conv2d(1, 32, kernel_size=(3, 1), stride=(1, 1), padding=same)
    (1): Tanh()
    (2): MaxPool2d(kernel_size=(2, 1), stride=2, padding=0, dilation=1, ceil_mode=False)
  )
  (conv2): Sequential(
    (0): Conv2d(32, 64, kernel_size=(3, 1), stride=(1, 1), padding=same)
    (1): Tanh()
    (2): MaxPool2d(kernel_size=(2, 1), stride=2, padding=0, dilation=1, ceil_mode=False)
  )
  (conv3): Sequential(
    (0): Conv2d(64, 128, kernel_size=(3, 1), stride=(1, 1), padding=same)
    (1): Tanh()
    (2): MaxPool2d(kernel_size=(2, 1), stride=2, padding=0, dilation=1, ceil_mode=False)
  )
  (conv4): Sequential(
    (0): Conv2d(128, 256, kernel_size=(3, 1), stride=(1, 1), padding=same)
    (1): Tanh()
    (2): MaxPool2d(kernel_size=(2, 1), stride=2, padding=0, dilation=1, ceil_mode=False)
  )
  (conv5): Sequential(
    (0): Conv2d(256, 512, kernel_size=(3, 1), stride=(1, 1), padding=same)
    (1): Tanh()
    (2): MaxPool2d(kernel_size=(2, 1), stride=2, padding=0, dilation=1, ceil_mode=False)
  )
  (drop): Dropout(p=0.1, inplace=False)
  (deconv1): Sequential(
    (0): ConvTranspose2d(512, 256, kernel_size=(2, 1), stride=(2, 2))
    (1): Tanh()
  )
  (deconv2): Sequential(
    (0): ConvTranspose2d(256, 128, kernel_size=(2, 1), stride=(2, 2))
    (1): Tanh()
  )
  (deconv3): Sequential(
    (0): ConvTranspose2d(128, 64, kernel_size=(2, 1), stride=(2, 2))
    (1): Tanh()
  )
  (deconv4): Sequential(
    (0): ConvTranspose2d(64, 32, kernel_size=(2, 1), stride=(2, 2))
    (1): Tanh()
  )
  (deconv5): Sequential(
    (0): ConvTranspose2d(32, 1, kernel_size=(2, 1), stride=(2, 2))
    (1): Tanh()
  )
)
MSELoss()
0.0001
100
Adam (
Parameter Group 0
    amsgrad: False
    betas: (0.9, 0.999)
    capturable: False
    eps: 1e-08
    foreach: None
    lr: 0.0001
    maximize: False
    weight_decay: 0
)
[… 2023-02-26 11:59:17.481416
CAE(
  (conv1): Sequential(
    (0): Conv2d(1, 32, kernel_size=(3, 1), stride=(1, 1), padding=same)
    (1): Tanh()
    (2): MaxPool2d(kernel_size=(2, 1), stride=2, padding=0, dilation=1, ceil_mode=False)
  )
  (conv2): Sequential(
    (0): Conv2d(32, 64, kernel_size=(3, 1), stride=(1, 1), padding=same)
    (1): Tanh()
    (2): MaxPool2d(kernel_size=(2, 1), stride=2, padding=0, dilation=1, ceil_mode=False)
  )
  (conv3): Sequential(
    (0): Conv2d(64, 128, kernel_size=(3, 1), stride=(1, 1), padding=same)
    (1): Tanh()
    (2): MaxPool2d(kernel_size=(2, 1), stride=2, padding=0, dilation=1, ceil_mode=False)
  )
  (conv4): Sequential(
    (0): Conv2d(128, 256, kernel_size=(3, 1), stride=(1, 1), padding=same)
    (1): Tanh()
    (2): MaxPool2d(kernel_size=(2, 1), stride=2, padding=0, dilation=1, ceil_mode=False)
  )
  (conv5): Sequential(
    (0): Conv2d(256, 512, kernel_size=(3, 1), stride=(1, 1), padding=same)
    (1): Tanh()
    (2): MaxPool2d(kernel_size=(2, 1), stride=2, padding=0, dilation=1, ceil_mode=False)
  )
  (drop): Dropout(p=0.1, inplace=False)
  (deconv1): Sequential(
    (0): ConvTranspose2d(512, 256, kernel_size=(2, 1), stride=(2, 2))
    (1): Tanh()
  )
  (deconv2): Sequential(
    (0): ConvTranspose2d(256, 128, kernel_size=(2, 1), stride=(2, 2))
    (1): Tanh()
  )
  (deconv3): Sequential(
    (0): ConvTranspose2d(128, 64, kernel_size=(2, 1), stride=(2, 2))
    (1): Tanh()
  )
  (deconv4): Sequential(
    (0): ConvTranspose2d(64, 32, kernel_size=(2, 1), stride=(2, 2))
    (1): Tanh()
  )
  (deconv5): Sequential(
    (0): ConvTranspose2d(32, 1, kernel_size=(2, 1), stride=(2, 2))
    (1): Tanh()
  )
)
MSELoss()
0.0001
100
Adam (
Parameter Group 0
    amsgrad: False
    betas: (0.9, 0.999)
    capturable: False
    eps: 1e-08
    foreach: None
    lr: 0.0001
    maximize: False
    weight_decay: 0
)
[… 2023-02-26 12:08:02.382901
CAE(
  (conv1): Sequential(
    (0): Conv2d(1, 32, kernel_size=(3, 1), stride=(1, 1), padding=same)
    (1): Tanh()
    (2): MaxPool2d(kernel_size=(2, 1), stride=2, padding=0, dilation=1, ceil_mode=False)
  )
  (conv2): Sequential(
    (0): Conv2d(32, 64, kernel_size=(3, 1), stride=(1, 1), padding=same)
    (1): Tanh()
    (2): MaxPool2d(kernel_size=(2, 1), stride=2, padding=0, dilation=1, ceil_mode=False)
  )
  (conv3): Sequential(
    (0): Conv2d(64, 128, kernel_size=(3, 1), stride=(1, 1), padding=same)
    (1): Tanh()
    (2): MaxPool2d(kernel_size=(2, 1), stride=2, padding=0, dilation=1, ceil_mode=False)
  )
  (conv4): Sequential(
    (0): Conv2d(128, 256, kernel_size=(3, 1), stride=(1, 1), padding=same)
    (1): Tanh()
    (2): MaxPool2d(kernel_size=(2, 1), stride=2, padding=0, dilation=1, ceil_mode=False)
  )
  (conv5): Sequential(
    (0): Conv2d(256, 512, kernel_size=(3, 1), stride=(1, 1), padding=same)
    (1): Tanh()
    (2): MaxPool2d(kernel_size=(2, 1), stride=2, padding=0, dilation=1, ceil_mode=False)
  )
  (drop): Dropout(p=0.1, inplace=False)
  (deconv1): Sequential(
    (0): ConvTranspose2d(512, 256, kernel_size=(2, 1), stride=(2, 2))
    (1): Tanh()
  )
  (deconv2): Sequential(
    (0): ConvTranspose2d(256, 128, kernel_size=(2, 1), stride=(2, 2))
    (1): Tanh()
  )
  (deconv3): Sequential(
    (0): ConvTranspose2d(128, 64, kernel_size=(2, 1), stride=(2, 2))
    (1): Tanh()
  )
  (deconv4): Sequential(
    (0): ConvTranspose2d(64, 32, kernel_size=(2, 1), stride=(2, 2))
    (1): Tanh()
  )
  (deconv5): Sequential(
    (0): ConvTranspose2d(32, 1, kernel_size=(2, 1), stride=(2, 2))
    (1): Tanh()
  )
)
MSELoss()
0.0001
100
Adam (
Parameter Group 0
    amsgrad: False
    betas: (0.9, 0.999)
    capturable: False
    eps: 1e-08
    foreach: None
    lr: 0.0001
    maximize: False
    weight_decay: 0
)
[… 2023-02-26 12:30:08.426975
CAE(
  (conv1): Sequential(
    (0): Conv2d(1, 32, kernel_size=(3, 1), stride=(1, 1), padding=same)
    (1): Tanh()
    (2): MaxPool2d(kernel_size=(2, 1), stride=2, padding=0, dilation=1, ceil_mode=False)
  )
  (conv2): Sequential(
    (0): Conv2d(32, 64, kernel_size=(3, 1), stride=(1, 1), padding=same)
    (1): Tanh()
    (2): MaxPool2d(kernel_size=(2, 1), stride=2, padding=0, dilation=1, ceil_mode=False)
  )
  (conv3): Sequential(
    (0): Conv2d(64, 128, kernel_size=(3, 1), stride=(1, 1), padding=same)
    (1): Tanh()
    (2): MaxPool2d(kernel_size=(2, 1), stride=2, padding=0, dilation=1, ceil_mode=False)
  )
  (conv4): Sequential(
    (0): Conv2d(128, 256, kernel_size=(3, 1), stride=(1, 1), padding=same)
    (1): Tanh()
    (2): MaxPool2d(kernel_size=(2, 1), stride=2, padding=0, dilation=1, ceil_mode=False)
  )
  (conv5): Sequential(
    (0): Conv2d(256, 512, kernel_size=(3, 1), stride=(1, 1), padding=same)
    (1): Tanh()
    (2): MaxPool2d(kernel_size=(2, 1), stride=2, padding=0, dilation=1, ceil_mode=False)
  )
  (drop): Dropout(p=0.1, inplace=False)
  (deconv1): Sequential(
    (0): ConvTranspose2d(512, 256, kernel_size=(2, 1), stride=(2, 2))
    (1): Tanh()
  )
  (deconv2): Sequential(
    (0): ConvTranspose2d(256, 128, kernel_size=(2, 1), stride=(2, 2))
    (1): Tanh()
  )
  (deconv3): Sequential(
    (0): ConvTranspose2d(128, 64, kernel_size=(2, 1), stride=(2, 2))
    (1): Tanh()
  )
  (deconv4): Sequential(
    (0): ConvTranspose2d(64, 32, kernel_size=(2, 1), stride=(2, 2))
    (1): Tanh()
  )
  (deconv5): Sequential(
    (0): ConvTranspose2d(32, 1, kernel_size=(2, 1), stride=(2, 2))
    (1): Tanh()
  )
)
MSELoss()
0.0001
100
Adam (
Parameter Group 0
    amsgrad: False
    betas: (0.9, 0.999)
    capturable: False
    eps: 1e-08
    foreach: None
    lr: 0.0001
    maximize: False
    weight_decay: 0
)
[… 2023-02-26 16:47:48.430679
CAE(
  (conv1): Sequential(
    (0): Conv2d(1, 32, kernel_size=(3, 1), stride=(1, 1), padding=same)
    (1): Tanh()
    (2): MaxPool2d(kernel_size=(2, 1), stride=2, padding=0, dilation=1, ceil_mode=False)
  )
  (conv2): Sequential(
    (0): Conv2d(32, 64, kernel_size=(3, 1), stride=(1, 1), padding=same)
    (1): Tanh()
    (2): MaxPool2d(kernel_size=(2, 1), stride=2, padding=0, dilation=1, ceil_mode=False)
  )
  (conv3): Sequential(
    (0): Conv2d(64, 128, kernel_size=(3, 1), stride=(1, 1), padding=same)
    (1): Tanh()
    (2): MaxPool2d(kernel_size=(2, 1), stride=2, padding=0, dilation=1, ceil_mode=False)
  )
  (conv4): Sequential(
    (0): Conv2d(128, 256, kernel_size=(3, 1), stride=(1, 1), padding=same)
    (1): Tanh()
    (2): MaxPool2d(kernel_size=(2, 1), stride=2, padding=0, dilation=1, ceil_mode=False)
  )
  (conv5): Sequential(
    (0): Conv2d(256, 512, kernel_size=(3, 1), stride=(1, 1), padding=same)
    (1): Tanh()
    (2): MaxPool2d(kernel_size=(2, 1), stride=2, padding=0, dilation=1, ceil_mode=False)
  )
  (drop): Dropout(p=0.1, inplace=False)
  (deconv1): Sequential(
    (0): ConvTranspose2d(512, 256, kernel_size=(2, 1), stride=(2, 2))
    (1): Tanh()
  )
  (deconv2): Sequential(
    (0): ConvTranspose2d(256, 128, kernel_size=(2, 1), stride=(2, 2))
    (1): Tanh()
  )
  (deconv3): Sequential(
    (0): ConvTranspose2d(128, 64, kernel_size=(2, 1), stride=(2, 2))
    (1): Tanh()
  )
  (deconv4): Sequential(
    (0): ConvTranspose2d(64, 32, kernel_size=(2, 1), stride=(2, 2))
    (1): Tanh()
  )
  (deconv5): Sequential(
    (0): ConvTranspose2d(32, 1, kernel_size=(2, 1), stride=(2, 2))
    (1): Tanh()
  )
)
MSELoss()
0.0001
100
Adam (
Parameter Group 0
    amsgrad: False
    betas: (0.9, 0.999)
    capturable: False
    eps: 1e-08
    foreach: None
    lr: 0.0001
    maximize: False
    weight_decay: 0
)
[… 2023-02-26 16:58:01.080859
CAE(
  (conv1): Sequential(
    (0): Conv2d(1, 32, kernel_size=(3, 1), stride=(1, 1), padding=same)
    (1): Tanh()
    (2): MaxPool2d(kernel_size=(2, 1), stride=2, padding=0, dilation=1, ceil_mode=False)
  )
  (conv2): Sequential(
    (0): Conv2d(32, 64, kernel_size=(3, 1), stride=(1, 1), padding=same)
    (1): Tanh()
    (2): MaxPool2d(kernel_size=(2, 1), stride=2, padding=0, dilation=1, ceil_mode=False)
  )
  (conv3): Sequential(
    (0): Conv2d(64, 128, kernel_size=(3, 1), stride=(1, 1), padding=same)
    (1): Tanh()
    (2): MaxPool2d(kernel_size=(2, 1), stride=2, padding=0, dilation=1, ceil_mode=False)
  )
  (conv4): Sequential(
    (0): Conv2d(128, 256, kernel_size=(3, 1), stride=(1, 1), padding=same)
    (1): Tanh()
    (2): MaxPool2d(kernel_size=(2, 1), stride=2, padding=0, dilation=1, ceil_mode=False)
  )
  (conv5): Sequential(
    (0): Conv2d(256, 512, kernel_size=(3, 1), stride=(1, 1), padding=same)
    (1): Tanh()
    (2): MaxPool2d(kernel_size=(2, 1), stride=2, padding=0, dilation=1, ceil_mode=False)
  )
  (drop): Dropout(p=0.1, inplace=False)
  (deconv1): Sequential(
    (0): ConvTranspose2d(512, 256, kernel_size=(2, 1), stride=(2, 2))
    (1): Tanh()
  )
  (deconv2): Sequential(
    (0): ConvTranspose2d(256, 128, kernel_size=(2, 1), stride=(2, 2))
    (1): Tanh()
  )
  (deconv3): Sequential(
    (0): ConvTranspose2d(128, 64, kernel_size=(2, 1), stride=(2, 2))
    (1): Tanh()
  )
  (deconv4): Sequential(
    (0): ConvTranspose2d(64, 32, kernel_size=(2, 1), stride=(2, 2))
    (1): Tanh()
  )
  (deconv5): Sequential(
    (0): ConvTranspose2d(32, 1, kernel_size=(2, 1), stride=(2, 2))
    (1): Tanh()
  )
)
MSELoss()
0.0001
100
Adam (
Parameter Group 0
    amsgrad: False
    betas: (0.9, 0.999)
    capturable: False
    eps: 1e-08
    foreach: None
    lr: 0.0001
    maximize: False
    weight_decay: 0
)
[… 