2022-11-25 20:42:37.609368
AutoEncoder(
  (encoder): Sequential(
    (0): Linear(in_features=16000, out_features=2000, bias=True)
    (1): Tanh()
    (2): Linear(in_features=2000, out_features=1000, bias=True)
    (3): Tanh()
    (4): Linear(in_features=1000, out_features=500, bias=True)
    (5): Tanh()
    (6): Linear(in_features=500, out_features=250, bias=True)
    (7): Tanh()
    (8): Linear(in_features=250, out_features=100, bias=True)
    (9): Tanh()
    (10): Linear(in_features=100, out_features=50, bias=True)
    (11): Dropout(p=0.1, inplace=False)
  )
  (decoder): Sequential(
    (0): Linear(in_features=50, out_features=100, bias=True)
    (1): Tanh()
    (2): Linear(in_features=100, out_features=250, bias=True)
    (3): Tanh()
    (4): Linear(in_features=250, out_features=500, bias=True)
    (5): Tanh()
    (6): Linear(in_features=500, out_features=1000, bias=True)
    (7): Tanh()
    (8): Linear(in_features=1000, out_features=2000, bias=True)
    (9): Tanh()
    (10): Linear(in_features=2000, out_features=16000, bias=True)
  )
)
MSELoss()
0.0001
50
Adam (
Parameter Group 0
    amsgrad: False
    betas: (0.9, 0.999)
    capturable: False
    eps: 1e-08
    foreach: None
    lr: 0.0001
    maximize: False
    weight_decay: 0
)
[… 2022-11-25 20:52:56.001798
AutoEncoder(
  (encoder): Sequential(
    (0): Linear(in_features=16000, out_features=2000, bias=True)
    (1): Tanh()
    (2): Linear(in_features=2000, out_features=1000, bias=True)
    (3): Tanh()
    (4): Linear(in_features=1000, out_features=500, bias=True)
    (5): Tanh()
    (6): Linear(in_features=500, out_features=250, bias=True)
    (7): Tanh()
    (8): Linear(in_features=250, out_features=100, bias=True)
    (9): Tanh()
    (10): Linear(in_features=100, out_features=50, bias=True)
    (11): Dropout(p=0.1, inplace=False)
  )
  (decoder): Sequential(
    (0): Linear(in_features=50, out_features=100, bias=True)
    (1): Tanh()
    (2): Linear(in_features=100, out_features=250, bias=True)
    (3): Tanh()
    (4): Linear(in_features=250, out_features=500, bias=True)
    (5): Tanh()
    (6): Linear(in_features=500, out_features=1000, bias=True)
    (7): Tanh()
    (8): Linear(in_features=1000, out_features=2000, bias=True)
    (9): Tanh()
    (10): Linear(in_features=2000, out_features=16000, bias=True)
  )
)
MSELoss()
0.0001
50
Adam (
Parameter Group 0
    amsgrad: False
    betas: (0.9, 0.999)
    capturable: False
    eps: 1e-08
    foreach: None
    lr: 0.0001
    maximize: False
    weight_decay: 0
)
[… 2022-11-25 20:58:30.812915
AutoEncoder(
  (encoder): Sequential(
    (0): Linear(in_features=16000, out_features=2000, bias=True)
    (1): Tanh()
    (2): Linear(in_features=2000, out_features=1000, bias=True)
    (3): Tanh()
    (4): Linear(in_features=1000, out_features=500, bias=True)
    (5): Tanh()
    (6): Linear(in_features=500, out_features=250, bias=True)
    (7): Tanh()
    (8): Linear(in_features=250, out_features=100, bias=True)
    (9): Tanh()
    (10): Linear(in_features=100, out_features=50, bias=True)
    (11): Dropout(p=0.1, inplace=False)
  )
  (decoder): Sequential(
    (0): Linear(in_features=50, out_features=100, bias=True)
    (1): Tanh()
    (2): Linear(in_features=100, out_features=250, bias=True)
    (3): Tanh()
    (4): Linear(in_features=250, out_features=500, bias=True)
    (5): Tanh()
    (6): Linear(in_features=500, out_features=1000, bias=True)
    (7): Tanh()
    (8): Linear(in_features=1000, out_features=2000, bias=True)
    (9): Tanh()
    (10): Linear(in_features=2000, out_features=16000, bias=True)
  )
)
MSELoss()
0.0001
50
Adam (
Parameter Group 0
    amsgrad: False
    betas: (0.9, 0.999)
    capturable: False
    eps: 1e-08
    foreach: None
    lr: 0.0001
    maximize: False
    weight_decay: 0
)
[… 2022-12-07 17:28:51.479789
AutoEncoder(
  (encoder): Sequential(
    (0): Linear(in_features=16000, out_features=2000, bias=True)
    (1): Tanh()
    (2): Linear(in_features=2000, out_features=1000, bias=True)
    (3): Tanh()
    (4): Linear(in_features=1000, out_features=500, bias=True)
    (5): Tanh()
    (6): Linear(in_features=500, out_features=250, bias=True)
    (7): Tanh()
    (8): Linear(in_features=250, out_features=100, bias=True)
    (9): Tanh()
    (10): Linear(in_features=100, out_features=50, bias=True)
    (11): Dropout(p=0.1, inplace=False)
  )
  (decoder): Sequential(
    (0): Linear(in_features=50, out_features=100, bias=True)
    (1): Tanh()
    (2): Linear(in_features=100, out_features=250, bias=True)
    (3): Tanh()
    (4): Linear(in_features=250, out_features=500, bias=True)
    (5): Tanh()
    (6): Linear(in_features=500, out_features=1000, bias=True)
    (7): Tanh()
    (8): Linear(in_features=1000, out_features=2000, bias=True)
    (9): Tanh()
    (10): Linear(in_features=2000, out_features=16000, bias=True)
  )
)
MSELoss()
0.0001
70
Adam (
Parameter Group 0
    amsgrad: False
    betas: (0.9, 0.999)
    capturable: False
    eps: 1e-08
    foreach: None
    lr: 0.0001
    maximize: False
    weight_decay: 0
)
[… 2022-12-10 14:23:51.762301
AutoEncoder(
  (encoder): Sequential(
    (0): Linear(in_features=16000, out_features=2000, bias=True)
    (1): Tanh()
    (2): Linear(in_features=2000, out_features=1000, bias=True)
    (3): Tanh()
    (4): Linear(in_features=1000, out_features=500, bias=True)
    (5): Tanh()
    (6): Linear(in_features=500, out_features=250, bias=True)
    (7): Tanh()
    (8): Linear(in_features=250, out_features=100, bias=True)
    (9): Tanh()
    (10): Linear(in_features=100, out_features=50, bias=True)
    (11): Dropout(p=0.1, inplace=False)
  )
  (decoder): Sequential(
    (0): Linear(in_features=50, out_features=100, bias=True)
    (1): Tanh()
    (2): Linear(in_features=100, out_features=250, bias=True)
    (3): Tanh()
    (4): Linear(in_features=250, out_features=500, bias=True)
    (5): Tanh()
    (6): Linear(in_features=500, out_features=1000, bias=True)
    (7): Tanh()
    (8): Linear(in_features=1000, out_features=2000, bias=True)
    (9): Tanh()
    (10): Linear(in_features=2000, out_features=16000, bias=True)
  )
)
MSELoss()
0.0001
50
Adam (
Parameter Group 0
    amsgrad: False
    betas: (0.9, 0.999)
    capturable: False
    eps: 1e-08
    foreach: None
    lr: 0.0001
    maximize: False
    weight_decay: 0
)
[… 2022-12-10 14:27:08.634235
AutoEncoder(
  (encoder): Sequential(
    (0): Linear(in_features=16000, out_features=2000, bias=True)
    (1): Tanh()
    (2): Linear(in_features=2000, out_features=1000, bias=True)
    (3): Tanh()
    (4): Linear(in_features=1000, out_features=500, bias=True)
    (5): Tanh()
    (6): Linear(in_features=500, out_features=250, bias=True)
    (7): Tanh()
    (8): Linear(in_features=250, out_features=100, bias=True)
    (9): Tanh()
    (10): Linear(in_features=100, out_features=50, bias=True)
    (11): Dropout(p=0.1, inplace=False)
  )
  (decoder): Sequential(
    (0): Linear(in_features=50, out_features=100, bias=True)
    (1): Tanh()
    (2): Linear(in_features=100, out_features=250, bias=True)
    (3): Tanh()
    (4): Linear(in_features=250, out_features=500, bias=True)
    (5): Tanh()
    (6): Linear(in_features=500, out_features=1000, bias=True)
    (7): Tanh()
    (8): Linear(in_features=1000, out_features=2000, bias=True)
    (9): Tanh()
    (10): Linear(in_features=2000, out_features=16000, bias=True)
  )
)
MSELoss()
1e-06
50
Adam (
Parameter Group 0
    amsgrad: False
    betas: (0.9, 0.999)
    capturable: False
    eps: 1e-08
    foreach: None
    lr: 1e-06
    maximize: False
    weight_decay: 0
)
[… 2022-12-10 16:28:01.725160
AutoEncoder(
  (encoder): Sequential(
    (0): Linear(in_features=16000, out_features=2000, bias=True)
    (1): Tanh()
    (2): Linear(in_features=2000, out_features=1000, bias=True)
    (3): Tanh()
    (4): Linear(in_features=1000, out_features=500, bias=True)
    (5): Tanh()
    (6): Linear(in_features=500, out_features=250, bias=True)
    (7): Tanh()
    (8): Linear(in_features=250, out_features=100, bias=True)
    (9): Tanh()
    (10): Linear(in_features=100, out_features=50, bias=True)
    (11): Dropout(p=0.1, inplace=False)
  )
  (decoder): Sequential(
    (0): Linear(in_features=50, out_features=100, bias=True)
    (1): Tanh()
    (2): Linear(in_features=100, out_features=250, bias=True)
    (3): Tanh()
    (4): Linear(in_features=250, out_features=500, bias=True)
    (5): Tanh()
    (6): Linear(in_features=500, out_features=1000, bias=True)
    (7): Tanh()
    (8): Linear(in_features=1000, out_features=2000, bias=True)
    (9): Tanh()
    (10): Linear(in_features=2000, out_features=16000, bias=True)
  )
)
MSELoss()
0.0001
100
Adam (
Parameter Group 0
    amsgrad: False
    betas: (0.9, 0.999)
    capturable: False
    eps: 1e-08
    foreach: None
    lr: 0.0001
    maximize: False
    weight_decay: 0
)
[… 2022-12-10 17:00:26.131462
AutoEncoder(
  (encoder): Sequential(
    (0): Linear(in_features=16000, out_features=2000, bias=True)
    (1): Tanh()
    (2): Linear(in_features=2000, out_features=1000, bias=True)
    (3): Tanh()
    (4): Linear(in_features=1000, out_features=500, bias=True)
    (5): Tanh()
    (6): Linear(in_features=500, out_features=250, bias=True)
    (7): Tanh()
    (8): Linear(in_features=250, out_features=100, bias=True)
    (9): Tanh()
    (10): Linear(in_features=100, out_features=50, bias=True)
    (11): Dropout(p=0.1, inplace=False)
  )
  (decoder): Sequential(
    (0): Linear(in_features=50, out_features=100, bias=True)
    (1): Tanh()
    (2): Linear(in_features=100, out_features=250, bias=True)
    (3): Tanh()
    (4): Linear(in_features=250, out_features=500, bias=True)
    (5): Tanh()
    (6): Linear(in_features=500, out_features=1000, bias=True)
    (7): Tanh()
    (8): Linear(in_features=1000, out_features=2000, bias=True)
    (9): Tanh()
    (10): Linear(in_features=2000, out_features=16000, bias=True)
  )
)
MSELoss()
0.0001
100
Adam (
Parameter Group 0
    amsgrad: False
    betas: (0.9, 0.999)
    capturable: False
    eps: 1e-08
    foreach: None
    lr: 0.0001
    maximize: False
    weight_decay: 0
)
[… 2022-12-10 17:39:37.808366
AutoEncoder(
  (encoder): Sequential(
    (0): Linear(in_features=16000, out_features=2000, bias=True)
    (1): Tanh()
    (2): Linear(in_features=2000, out_features=1000, bias=True)
    (3): Tanh()
    (4): Linear(in_features=1000, out_features=500, bias=True)
    (5): Tanh()
    (6): Linear(in_features=500, out_features=250, bias=True)
    (7): Tanh()
    (8): Linear(in_features=250, out_features=100, bias=True)
    (9): Tanh()
    (10): Linear(in_features=100, out_features=50, bias=True)
    (11): Dropout(p=0.1, inplace=False)
  )
  (decoder): Sequential(
    (0): Linear(in_features=50, out_features=100, bias=True)
    (1): Tanh()
    (2): Linear(in_features=100, out_features=250, bias=True)
    (3): Tanh()
    (4): Linear(in_features=250, out_features=500, bias=True)
    (5): Tanh()
    (6): Linear(in_features=500, out_features=1000, bias=True)
    (7): Tanh()
    (8): Linear(in_features=1000, out_features=2000, bias=True)
    (9): Tanh()
    (10): Linear(in_features=2000, out_features=16000, bias=True)
  )
)
MSELoss()
0.0001
100
Adam (
Parameter Group 0
    amsgrad: False
    betas: (0.9, 0.999)
    capturable: False
    eps: 1e-08
    foreach: None
    lr: 0.0001
    maximize: False
    weight_decay: 0
)
[… 2022-12-10 19:21:45.418093
AutoEncoder(
  (encoder): Sequential(
    (0): Linear(in_features=16000, out_features=2000, bias=True)
    (1): Tanh()
    (2): Linear(in_features=2000, out_features=1000, bias=True)
    (3): Tanh()
    (4): Linear(in_features=1000, out_features=500, bias=True)
    (5): Tanh()
    (6): Linear(in_features=500, out_features=250, bias=True)
    (7): Tanh()
    (8): Linear(in_features=250, out_features=100, bias=True)
    (9): Tanh()
    (10): Linear(in_features=100, out_features=50, bias=True)
    (11): Dropout(p=0.1, inplace=False)
  )
  (decoder): Sequential(
    (0): Linear(in_features=50, out_features=100, bias=True)
    (1): Tanh()
    (2): Linear(in_features=100, out_features=250, bias=True)
    (3): Tanh()
    (4): Linear(in_features=250, out_features=500, bias=True)
    (5): Tanh()
    (6): Linear(in_features=500, out_features=1000, bias=True)
    (7): Tanh()
    (8): Linear(in_features=1000, out_features=2000, bias=True)
    (9): Tanh()
    (10): Linear(in_features=2000, out_features=16000, bias=True)
  )
)
MSELoss()
0.0001
100
Adam (
Parameter Group 0
    amsgrad: False
    betas: (0.9, 0.999)
    capturable: False
    eps: 1e-08
    foreach: None
    lr: 0.0001
    maximize: False
    weight_decay: 0
)
[… 2023-02-18 11:07:34.614962
CAE(
  (encoder): Sequential(
    (0): Conv2d(1, 32, kernel_size=(3, 1), stride=(1, 1), padding=same)
    (1): Tanh()
    (2): MaxPool2d(kernel_size=(2, 1), stride=2, padding=0, dilation=1, ceil_mode=False)
    (3): Conv2d(32, 64, kernel_size=(3, 1), stride=(1, 1), padding=same)
    (4): Tanh()
    (5): MaxPool2d(kernel_size=(2, 1), stride=2, padding=0, dilation=1, ceil_mode=False)
    (6): Conv2d(64, 128, kernel_size=(3, 1), stride=(1, 1), padding=same)
    (7): Tanh()
    (8): MaxPool2d(kernel_size=(2, 1), stride=2, padding=0, dilation=1, ceil_mode=False)
  )
  (decoder): Sequential(
    (0): ConvTranspose2d(128, 64, kernel_size=(3, 1), stride=(2, 2))
    (1): Tanh()
    (2): ConvTranspose2d(64, 32, kernel_size=(3, 1), stride=(2, 2))
    (3): Tanh()
    (4): ConvTranspose2d(32, 1, kernel_size=(3, 1), stride=(2, 2))
    (5): Tanh()
    (6): Trim()
  )
)
MSELoss()
0.0001
100
Adam (
Parameter Group 0
    amsgrad: False
    betas: (0.9, 0.999)
    capturable: False
    eps: 1e-08
    foreach: None
    lr: 0.0001
    maximize: False
    weight_decay: 0
)
[… 2023-02-18 11:21:52.409299
CAE(
  (encoder): Sequential(
    (0): Conv2d(1, 32, kernel_size=(3, 1), stride=(1, 1), padding=same)
    (1): Tanh()
    (2): MaxPool2d(kernel_size=(2, 1), stride=2, padding=0, dilation=1, ceil_mode=False)
    (3): Conv2d(32, 64, kernel_size=(3, 1), stride=(1, 1), padding=same)
    (4): Tanh()
    (5): MaxPool2d(kernel_size=(2, 1), stride=2, padding=0, dilation=1, ceil_mode=False)
    (6): Conv2d(64, 128, kernel_size=(3, 1), stride=(1, 1), padding=same)
    (7): Tanh()
    (8): MaxPool2d(kernel_size=(2, 1), stride=2, padding=0, dilation=1, ceil_mode=False)
  )
  (decoder): Sequential(
    (0): ConvTranspose2d(128, 64, kernel_size=(3, 1), stride=(2, 2))
    (1): Tanh()
    (2): ConvTranspose2d(64, 32, kernel_size=(3, 1), stride=(2, 2))
    (3): Tanh()
    (4): ConvTranspose2d(32, 1, kernel_size=(3, 1), stride=(2, 2))
    (5): Tanh()
    (6): Trim()
  )
)
MSELoss()
0.0001
100
Adam (
Parameter Group 0
    amsgrad: False
    betas: (0.9, 0.999)
    capturable: False
    eps: 1e-08
    foreach: None
    lr: 0.0001
    maximize: False
    weight_decay: 0
)
[… 2023-02-18 11:46:34.094605
CAE(
  (encoder): Sequential(
    (0): Conv2d(1, 32, kernel_size=(3, 1), stride=(1, 1), padding=same)
    (1): Tanh()
    (2): MaxPool2d(kernel_size=(2, 1), stride=2, padding=0, dilation=1, ceil_mode=False)
    (3): Conv2d(32, 64, kernel_size=(3, 1), stride=(1, 1), padding=same)
    (4): Tanh()
    (5): MaxPool2d(kernel_size=(2, 1), stride=2, padding=0, dilation=1, ceil_mode=False)
    (6): Conv2d(64, 128, kernel_size=(3, 1), stride=(1, 1), padding=same)
    (7): Tanh()
    (8): MaxPool2d(kernel_size=(2, 1), stride=2, padding=0, dilation=1, ceil_mode=False)
    (9): Conv2d(128, 256, kernel_size=(3, 1), stride=(1, 1), padding=same)
    (10): Tanh()
    (11): MaxPool2d(kernel_size=(2, 1), stride=2, padding=0, dilation=1, ceil_mode=False)
    (12): Conv2d(256, 512, kernel_size=(3, 1), stride=(1, 1), padding=same)
    (13): Tanh()
    (14): MaxPool2d(kernel_size=(2, 1), stride=2, padding=0, dilation=1, ceil_mode=False)
  )
  (decoder): Sequential(
    (0): ConvTranspose2d(512, 256, kernel_size=(3, 1), stride=(2, 2))
    (1): Tanh()
    (2): ConvTranspose2d(256, 128, kernel_size=(3, 1), stride=(2, 2))
    (3): Tanh()
    (4): ConvTranspose2d(128, 64, kernel_size=(3, 1), stride=(2, 2))
    (5): Tanh()
    (6): ConvTranspose2d(64, 32, kernel_size=(3, 1), stride=(2, 2))
    (7): Tanh()
    (8): ConvTranspose2d(32, 1, kernel_size=(3, 1), stride=(2, 2))
    (9): Tanh()
    (10): Trim()
  )
)
MSELoss()
0.0001
150
Adam (
Parameter Group 0
    amsgrad: False
    betas: (0.9, 0.999)
    capturable: False
    eps: 1e-08
    foreach: None
    lr: 0.0001
    maximize: False
    weight_decay: 0
)
[… 2023-02-18 13:08:00.331772
CAE(
  (encoder): Sequential(
    (0): Conv2d(1, 32, kernel_size=(3, 1), stride=(1, 1), padding=same)
    (1): Tanh()
    (2): MaxPool2d(kernel_size=(2, 1), stride=2, padding=0, dilation=1, ceil_mode=False)
    (3): Conv2d(32, 64, kernel_size=(3, 1), stride=(1, 1), padding=same)
    (4): Tanh()
    (5): MaxPool2d(kernel_size=(2, 1), stride=2, padding=0, dilation=1, ceil_mode=False)
    (6): Conv2d(64, 128, kernel_size=(3, 1), stride=(1, 1), padding=same)
    (7): Tanh()
    (8): MaxPool2d(kernel_size=(2, 1), stride=2, padding=0, dilation=1, ceil_mode=False)
    (9): Conv2d(128, 256, kernel_size=(3, 1), stride=(1, 1), padding=same)
    (10): Tanh()
    (11): MaxPool2d(kernel_size=(2, 1), stride=2, padding=0, dilation=1, ceil_mode=False)
    (12): Conv2d(256, 512, kernel_size=(3, 1), stride=(1, 1), padding=same)
    (13): Tanh()
    (14): MaxPool2d(kernel_size=(2, 1), stride=2, padding=0, dilation=1, ceil_mode=False)
  )
  (decoder): Sequential(
    (0): ConvTranspose2d(512, 256, kernel_size=(3, 1), stride=(2, 2))
    (1): Tanh()
    (2): ConvTranspose2d(256, 128, kernel_size=(3, 1), stride=(2, 2))
    (3): Tanh()
    (4): ConvTranspose2d(128, 64, kernel_size=(3, 1), stride=(2, 2))
    (5): Tanh()
    (6): ConvTranspose2d(64, 32, kernel_size=(3, 1), stride=(2, 2))
    (7): Tanh()
    (8): ConvTranspose2d(32, 1, kernel_size=(3, 1), stride=(2, 2))
    (9): Tanh()
    (10): Trim()
  )
)
MSELoss()
0.0001
150
Adam (
Parameter Group 0
    amsgrad: False
    betas: (0.9, 0.999)
    capturable: False
    eps: 1e-08
    foreach: None
    lr: 0.0001
    maximize: False
    weight_decay: 0
)
[… 2023-02-18 13:43:36.901938
CAE(
  (encoder): Sequential(
    (0): Conv2d(1, 32, kernel_size=(3, 1), stride=(1, 1), padding=same)
    (1): Tanh()
    (2): MaxPool2d(kernel_size=(2, 1), stride=2, padding=0, dilation=1, ceil_mode=False)
    (3): Conv2d(32, 64, kernel_size=(3, 1), stride=(1, 1), padding=same)
    (4): Tanh()
    (5): MaxPool2d(kernel_size=(2, 1), stride=2, padding=0, dilation=1, ceil_mode=False)
    (6): Conv2d(64, 128, kernel_size=(3, 1), stride=(1, 1), padding=same)
    (7): Tanh()
    (8): MaxPool2d(kernel_size=(2, 1), stride=2, padding=0, dilation=1, ceil_mode=False)
    (9): Conv2d(128, 256, kernel_size=(3, 1), stride=(1, 1), padding=same)
    (10): Tanh()
    (11): MaxPool2d(kernel_size=(2, 1), stride=2, padding=0, dilation=1, ceil_mode=False)
    (12): Conv2d(256, 512, kernel_size=(3, 1), stride=(1, 1), padding=same)
    (13): Tanh()
    (14): MaxPool2d(kernel_size=(2, 1), stride=2, padding=0, dilation=1, ceil_mode=False)
  )
  (decoder): Sequential(
    (0): ConvTranspose2d(512, 256, kernel_size=(3, 1), stride=(2, 2))
    (1): Tanh()
    (2): ConvTranspose2d(256, 128, kernel_size=(3, 1), stride=(2, 2))
    (3): Tanh()
    (4): ConvTranspose2d(128, 64, kernel_size=(3, 1), stride=(2, 2))
    (5): Tanh()
    (6): ConvTranspose2d(64, 32, kernel_size=(3, 1), stride=(2, 2))
    (7): Tanh()
    (8): ConvTranspose2d(32, 1, kernel_size=(3, 1), stride=(2, 2))
    (9): Trim()
  )
)
MSELoss()
0.0001
100
Adam (
Parameter Group 0
    amsgrad: False
    betas: (0.9, 0.999)
    capturable: False
    eps: 1e-08
    foreach: None
    lr: 0.0001
    maximize: False
    weight_decay: 0
)
[… 2023-02-18 14:05:33.020150
CAE(
  (encoder): Sequential(
    (0): Conv2d(1, 32, kernel_size=(3, 1), stride=(1, 1), padding=same)
    (1): Tanh()
    (2): MaxPool2d(kernel_size=(2, 1), stride=2, padding=0, dilation=1, ceil_mode=False)
    (3): Conv2d(32, 64, kernel_size=(3, 1), stride=(1, 1), padding=same)
    (4): Tanh()
    (5): MaxPool2d(kernel_size=(2, 1), stride=2, padding=0, dilation=1, ceil_mode=False)
    (6): Conv2d(64, 128, kernel_size=(3, 1), stride=(1, 1), padding=same)
    (7): Tanh()
    (8): MaxPool2d(kernel_size=(2, 1), stride=2, padding=0, dilation=1, ceil_mode=False)
    (9): Conv2d(128, 256, kernel_size=(3, 1), stride=(1, 1), padding=same)
    (10): Tanh()
    (11): MaxPool2d(kernel_size=(2, 1), stride=2, padding=0, dilation=1, ceil_mode=False)
    (12): Conv2d(256, 512, kernel_size=(3, 1), stride=(1, 1), padding=same)
    (13): Tanh()
    (14): MaxPool2d(kernel_size=(2, 1), stride=2, padding=0, dilation=1, ceil_mode=False)
  )
  (decoder): Sequential(
    (0): ConvTranspose2d(512, 256, kernel_size=(3, 1), stride=(2, 2))
    (1): Tanh()
    (2): ConvTranspose2d(256, 128, kernel_size=(3, 1), stride=(2, 2))
    (3): Tanh()
    (4): ConvTranspose2d(128, 64, kernel_size=(3, 1), stride=(2, 2))
    (5): Tanh()
    (6): ConvTranspose2d(64, 32, kernel_size=(3, 1), stride=(2, 2))
    (7): Tanh()
    (8): ConvTranspose2d(32, 1, kernel_size=(3, 1), stride=(2, 2))
    (9): Tanh()
    (10): Trim()
  )
)
MSELoss()
0.0001
100
Adam (
Parameter Group 0
    amsgrad: False
    betas: (0.9, 0.999)
    capturable: False
    eps: 1e-08
    foreach: None
    lr: 0.0001
    maximize: False
    weight_decay: 0
)
[… 